actor_checkpoint.pth (torch_old, 92626 bytes, 18 tensors)

model.0.weight f4 [33]
000000 26 f9 d5 3e a7 37 95 3e 85 d4 07 3f 37 b6 43 3d
       0.41791648 0.29144022 0.53058654 0.047781195
000010 03 84 de 3d f1 90 37 3e 16 3b 35 3e f1 89 81 3d
       0.10865023 0.17926385 0.17698321 0.06325138
000020 fe f8 32 3d 84 2a 8e 3d 99 20 24 3e 45 98 72 3e
       0.04369449 0.06941703 0.1602806 0.23690899
000030 c0 11 a4 3e 66 27 2b 3f b1 ec e7 3e f9 9a 18 3f
       0.32044792 0.6685699 0.4529777 0.5961147
000040 10 bc 84 3e 20 4d 47 3e a6 cf 57 3e 4f 35 89 3e
       0.2592473 0.19463015 0.21075305 0.26798484
000050 81 ad 00 3e c5 ec a6 3d 8f c0 94 3d eb c2 01 3f
       0.12566186 0.08150629 0.0726329 0.50688046
000060 f3 42 a2 3e 56 6a d2 3e 66 0e 4b 3f 54 34 1c 3f
       0.31691703 0.41096753 0.79318845 0.61017346
000070 fa 33 5b 3f 0d a3 66 3f e4 69 78 3e 8c 37 ca 3e
       0.85626185 0.90092546 0.24259144 0.39495504
000080 cb 29 9e 3f
       1.2356504

model.0.bias f4 [33]
000000 3d e9 bd bd a4 1a ea bd 0a e5 f4 3c 82 51 74 3e
       -0.09273002 -0.114308625 0.02989437 0.23859218
000010 40 88 63 bd 63 84 fc 3d 41 39 26 3e 1e 21 7c 3d
       -0.05554986 0.12329938 0.16232778 0.06155502
000020 62 ae 5c 3d a1 a2 49 be 2e 9a 9b 3c 3e 66 fd 3d
       0.053877242 -0.19690944 0.018994417 0.12373017
000030 9a 02 8c bd ae da 6f bc 07 69 02 3e c4 65 2f 3c
       -0.06836434 -0.01463954 0.12735377 0.010705415
000040 a3 7c 33 bd bf 55 b1 3d 0c 18 db 3d a5 52 d8 3d
       -0.043820035 0.08658933 0.10697946 0.10562638
000050 06 8e 93 bd b2 d0 73 bc 1b 3c 0a be 2a a2 6c bd
       -0.07204823 -0.0148813 -0.13499491 -0.05777184
000060 e7 3b e7 bd 6d b2 30 3b d3 e1 a1 bd 5a 12 4a 3e
       -0.11290722 0.0026961819 -0.07904401 0.19733563
000070 9d ea c8 bc c4 55 84 3e 82 49 8d 3e 3e 64 52 be
       -0.024525935 0.25846684 0.27595145 -0.20546052
000080 8c 41 15 3e
       0.14575785

model.0.running_mean f4 [33]
000000 1d 3e 4e 3e 91 bd 35 c0 9e 7d 3d bd 87 72 65 3f
       0.20140882 -2.8396952 -0.046262376 0.8962788
000010 dd 0d cf 3c a6 12 18 3b b5 fe 3e bc a2 a9 9e bb
       0.025275165 0.0023204475 -0.011657407 -0.004841999
000020 9b 6d 85 3c 8b 38 31 bb 1a 94 03 bb dc e6 cf 3c
       0.016287616 -0.002704176 -0.002007729 0.025378637
000030 c7 0f cd bb 04 0d 84 3e 8f 29 38 c0 1f 0b aa be
       -0.0062579843 0.2579118 -2.8775365 -0.3321161
000040 db 66 66 3b cd 5c 3b 3d 81 74 06 bd 04 09 c2 3d
       0.0035156521 0.0457428 -0.03282595 0.09474376
000050 7d ae f9 bc 4a 7a 9a 3c 9b 9a 67 3b 87 c2 b2 3c
       -0.03047871 0.01885714 0.0035339955 0.021821273
000060 1c 03 2b 3e ec 2a 21 3c a5 d6 a7 3e fc ff 7f bf
       0.16700405 0.0098368935 0.32780948 -0.99999976
000070 6d 21 91 be 00 00 00 00 fc ff 7f 3f 00 00 00 00
       -0.28345814 0.0 0.99999976 0.0
000080 4b e9 8f 3d
       0.07026919

model.0.running_var f4 [33]
000000 23 e9 59 40 7a 3b c9 3e cf fb 84 40 98 bc 1f 3d
       3.4048545 0.3930319 4.1557384 0.038998216
000010 e8 19 64 3d bf 43 5e 3c 14 6b b4 3d 20 29 41 3e
       0.05568877 0.013565957 0.08809486 0.18863344
000020 d8 ef 2e 3d 0d 83 c2 3d 93 16 f7 3f 22 10 1a 3f
       0.0427092 0.09497652 1.9303764 0.60180867
000030 2b de ec 3f 04 93 87 41 83 b3 d7 3f 8e c7 aa 41
       1.85053 16.946785 1.6851658 21.347439
000040 59 fc b5 3d 24 16 87 3e 46 a9 78 3d a0 ed 12 3f
       0.08886022 0.2638408 0.060708307 0.57393837
000050 3c ee ca 3f 3a e2 f2 3e e9 df bb 3e 5f 1d cb 40
       1.5853953 0.47438222 0.36694267 6.3473353
000060 e1 93 47 40 f7 47 fe 40 07 2b 00 42 04 00 00 00
       3.1184008 7.946285 32.04202 6e-45
000070 88 79 ff 41 04 00 00 00 04 00 00 00 04 00 00 00
       31.934341 6e-45 6e-45 6e-45
000080 e3 e9 af 3e
       0.3435813

model.1.weight f4 [128, 33]
000000 34 7d fb bd e3 e9 2f 3d 55 8f 31 3e f0 48 62 3e
       -0.1227974 0.04294766 0.17339833 0.22098136
000010 01 74 9d 3d 60 c1 f2 3c 22 38 38 bc 63 f5 84 bd
       0.076881416 0.029633224 -0.011243852 -0.06492116
000020 53 f0 6a bd d1 06 69 bb 8b 07 26 bd db 50 82 bd
       -0.057358097 -0.0035557041 -0.040534537 -0.06363078
000030 82 49 99 bd 3a 45 65 3c 84 dc 40 be c9 6c ab be
       -0.07484724 0.013993556 -0.1883412 -0.33481434
000040 a2 4d c5 3c 33 0f f0 3d 06 aa a7 3b ba 4b 31 bc
       0.02408487 0.11721649 0.005116704 -0.010821277
000050 f8 6a 11 bd 97 05 d4 bd c2 b0 a1 bc f9 6a 23 bd
       -0.035502404 -0.10352629 -0.019737605 -0.03989694
000060 af 69 93 be bf 51 2c 3d 19 c7 c8 bd a7 e3 bc 3e
       -0.28791568 0.042070147 -0.098036 0.36892435
000070 4b 56 b3 bc 96 72 5f 3e 8f 77 a6 3e c6 03 b7 be
       -0.021891734 0.21821055 0.3251309 -0.35745066
000080 2a cb 37 3c fc 46 8f bd b9 0c 63 be d5 bd 2d 3e
       0.011217872 -0.06995961 -0.22172822 0.16966946
000090 e1 e9 3d 3e a6 b2 00 be 86 79 e4 3c 3d b1 2b bd
       0.18546249 -0.12568149 0.027889978 -0.041917074
0000a0 08 11 4b bd 9f 90 89 3e 4e b5 1f be b4 a0 9b bd
       -0.04957679 0.2686815 -0.15596506 -0.07599011
0000b0 a0 73 1d bd 59 3a a3 3d 6b 17 74 be 96 62 a8 3d
       -0.038440347 0.07970113 -0.23837058 0.08221929
0000c0 ed ca d6 bd 6d 2d 67 3d 10 a9 8f 3d 1c bd 88 bd
       -0.10487924 0.056439806 0.07014668 -0.06676695
0000d0 69 9f f2 3d cc 39 e2 3c 51 b3 a7 3d 8a 7e af 3c
       0.11846811 0.02761545 0.08188499 0.021422643
0000e0 07 62 45 bd d3 98 a4 3d fb a8 2a 3e 2d a4 cf 3c
       -0.04818919 0.080369614 0.16666023 0.02534684
0000f0 35 d0 8c 3c d9 24 55 be 33 bc a3 3d 82 13 53 3c
       0.017189125 -0.20814838 0.079948805 0.012883069
000100 48 df d0 bd 06 ed c0 3c fe 3b 15 be ad c1 c4 3d
       -0.101988375 0.023550522 -0.14573666 0.09607253
000110 af 48 bd 3e 47 99 29 be 90 6a 5b bd 9f 1c cb 3d
       0.36969516 -0.16562377 -0.053568423 0.099175684
000120 63 83 d6 3e 05 e9 db 3c ca 1a a5 3d d9 b2 55 bc
       0.41897115 0.02684451 0.0806175 -0.013043129
000130 02 ba 1e be c9 b8 8a 3b bc 77 66 3e 52 e3 9f 3c
       -0.15500644 0.004233454 0.22506613 0.019517574
000140 a2 c1 d0 3d 92 e0 2c 3e ea 2c 3c 3c f6 ee a8 be
       0.101931825 0.16882542 0.011485318 -0.32994813
000150 e0 3f 0a be 32 db 09 3e dc b5 06 3e fd d0 a9 bd
       -0.13500929 0.13462523 0.13155311 -0.082918145
000160 dc a8 32 bd ab cd da bd c8 57 e0 3d 97 f3 8d bb
       -0.043618068 -0.10683759 0.10954243 -0.0043320167
000170 48 97 6f be 4d 9c 9e 3d 12 8f 33 3d e2 65 10 be
       -0.23397553 0.07744656 0.043837614 -0.14101365
000180 d9 8a 2d 3c 52 3e 7a 3e f7 ef 9c 3d 2b 83 cd 3d
       0.010592186 0.24437836 0.07662957 0.10034784
000190 88 11 1b 3e 5f 39 ad 3d a1 6f 6e 3d 7c 24 7c 3d
       0.15143406 0.08458208 0.058211926 0.06155823
0001a0 3c f9 8b 3d ee 9b 8a 3d 35 20 d3 bd c2 49 c4 bd
       0.06834647 0.067680225 -0.103088774 -0.09584381
0001b0 f0 00 06 be 3c 87 94 bd 05 54 39 3d 25 c6 76 3c
       -0.13086295 -0.072523564 0.045246143 0.01506189
0001c0 c2 97 1e be b2 01 4d 3d 88 72 8e bc 07 08 19 be
       -0.15487579 0.050050445 -0.017388597 -0.14944468
0001d0 7d 67 ce bd 1d 67 6a 3d ec bd a4 3d 6b c7 a0 bd
       -0.100783326 0.057227243 0.08044037 -0.07850536
0001e0 83 42 c8 3d 0a 45 0b 3e 11 0a d0 bd fd 6a 7f 3e
       0.09778311 0.13600555 -0.1015817 0.24943157
0001f0 33 83 ff 3b 5a a5 38 3e b5 0b 7f 3e 27 00 ab 3d
       0.0077976226 0.18031827 0.2490681 0.083496384
000200 d0 34 a6 3d 44 bd 00 3e d5 35 b3 3c ad 73 80 3e
       0.08115542 0.12572199 0.021876255 0.25088254
000210 67 39 9e 3e fb 67 15 be f5 1f 03 be f7 8b 94 bb
       0.3090317 -0.14590447 -0.1280516 -0.0045332867
000220 7d b4 03 3d f2 0b ef ba f1 35 a7 3d bf a9 05 3e
       0.03215455 -0.0018237813 0.081645854 0.13053034
000230 b3 32 b3 3e 06 cd d8 bc 4e 81 c5 3d e2 ed 00 3e
       0.34999618 -0.02646495 0.096438035 0.12590745
000240 a0 31 e4 3d 90 29 8f 3e 20 62 6b 3e 6c 5b be bd
       0.11142278 0.27961397 0.2298665 -0.09294781
000250 f3 37 19 bd 89 1b c5 bc 5c 1b 81 bc fe 91 f7 bd
       -0.037406873 -0.024060981 -0.015760116 -0.12088393
000260 0b ca 56 bc 9b 9f 39 3d ad 25 33 be 16 c3 76 3e
       -0.013109694 0.045318227 -0.17494841 0.24097857
000270 18 ae 82 3e f8 d5 71 3e d3 d6 f8 bd 0d fa 0b 3e
       0.25523448 0.23616779 -0.121503495 0.13669606
000280 af b8 ec bc aa 88 25 3e 19 e3 61 bd 61 ef 15 3e
       -0.028896658 0.16165414 -0.055148218 0.14642097
000290 c6 10 93 3d 43 20 95 bd ee a3 e8 3c e9 96 37 bd
       0.07180934 -0.07281544 0.02839848 -0.044821654
0002a0 a2 39 8d bd e0 4e 8b 3c 2b 90 8a 3c ca 75 ab bd
       -0.06895758 0.017005384 0.016914448 -0.08372076
0002b0 25 b8 6d 3c 60 f1 49 3e 50 a9 d0 3c 41 20 8e bc
       0.0145092355 0.19720984 0.02547136 -0.017349364
0002c0 6f 9d 22 bd 96 68 01 3d 36 89 38 3e ca 9a a8 bc
       -0.03970092 0.03159388 0.18021092 -0.020581622
0002d0 92 1b 69 be 09 aa 93 bd 45 0a 05 3d d0 64 9e bc
       -0.22764423 -0.07210166 0.032480497 -0.01933518
0002e0 36 f3 56 bc 61 74 a2 3d 32 c2 e7 bb 51 2a ce 3c
       -0.013119509 0.07932354 -0.0070727104 0.025166662
0002f0 e2 19 ea 3c bb 46 c9 3c 0d f7 8c 3d 6c eb 91 be
       0.028576795 0.02456986 0.06883059 -0.28499925
000300 9c 89 8d be b3 e2 9f 3e 6e 0c 98 bd 9d e0 4c bd
       -0.2764405 0.31227645 -0.07424246 -0.050018895
000310 f6 b7 45 3e 89 97 3c 3d 01 99 b1 be 4d 25 94 bd
       0.19308457 0.046042953 -0.34687045 -0.07233677
000320 28 86 65 be c5 f1 8c bc a8 9c 33 bd 07 17 09 bc
       -0.22414458 -0.017205128 -0.04385057 -0.008367307
000330 16 2e 09 be 1b 24 8c 3c 48 b3 8c bd c3 9e 55 be
       -0.13396487 0.01710706 -0.06870133 -0.20861344
000340 bb 6d 41 bd 8b 62 34 bd 9b e6 0e bd 96 d3 77 3e
       -0.047223788 -0.04403929 -0.03488789 0.24201807
000350 b6 69 47 3d 7b 33 9e 3e 0f a3 fb 3c 89 31 3a 3d
       0.0486848 0.3089865 0.0307174 0.045457397
000360 b0 06 c4 bc 00 f6 34 bd 71 c2 82 3c 22 bc c0 bc
       -0.02392897 -0.044179916 0.015961858 -0.023527209
000370 6c a7 98 3c 20 c2 17 3d 54 2b 9a 3c e0 83 19 3d
       0.01863452 0.037050366 0.018819489 0.03747928
000380 04 5b 1b 3d a3 52 c4 3d 38 1d bb 3c b4 f7 1e 3e
       0.037928596 0.09586074 0.022841081 0.15524179
000390 a0 93 e7 3e cf 2c 04 be a7 6c 25 3c 54 3c bf 3d
       0.45229816 -0.12907718 0.0100967055 0.093376786
0003a0 74 47 85 3d 69 36 10 3e c0 20 08 be 9a 5d f9 bd
       0.06507769 0.14083256 -0.13293743 -0.12176056
0003b0 e7 c7 30 be ae e3 0f be c9 ac 8d 3d 12 6f 6c 3e
       -0.17263757 -0.14051697 0.06917722 0.23089245
0003c0 c1 6f 7a 3c 99 08 4b 3e c9 f7 83 3c 4f eb c6 bd
       0.015285433 0.19827498 0.016109364 -0.0971285
0003d0 14 97 ed 3d cb 8f d0 3d 89 6e 09 be 0f 1f 90 bd
       0.116010815 0.10183676 -0.13421072 -0.07037174
0003e0 1a 49 03 3e fc 08 63 3d e5 4b 02 bd a8 95 03 be
       0.12820855 0.05542849 -0.03181066 -0.12850058
0003f0 35 e6 16 3d e1 33 52 3b 64 0e 41 3e 54 15 77 bd
       0.036840636 0.003207438 0.18853146 -0.060323074

model.1.bias f4 [128]
000000 66 20 a8 3e 92 74 e8 3d af 6f 0f 3c dd 5c 43 3e
       0.32837218 0.11350359 0.008754655 0.19078393
000010 81 9b 0b 3e 99 3a 86 bd 84 41 c7 3e a8 e9 ad 3d
       0.13633539 -0.06554145 0.38917172 0.08491832
000020 67 eb 97 3b 8f e3 19 3e 37 ff ba bb a9 02 da 3d
       0.0046362164 0.15028213 -0.0057066935 0.10645039
000030 4b 5d 57 bb d3 a8 a8 bd c9 65 20 3c dc d5 18 bc
       -0.0032862003 -0.08235326 0.0097898925 -0.009328332
000040 f4 61 51 3d fa 18 b2 3e d6 53 cd 3d 04 74 c3 3e
       0.051118806 0.3478468 0.10025756 0.3817445
000050 fa ad 20 3d 76 9e 69 3e 04 75 55 3e 03 5e 43 3d
       0.039228417 0.22814354 0.20845419 0.04769708
000060 51 3a 74 3e e7 ce 34 3e d3 c0 5f 3c b8 e3 fe 3c
       0.23850371 0.17657052 0.013656813 0.031114444
000070 d3 9f 6d 3e 30 c0 d8 3d a2 5b bb 3e 3a 2a a0 3e
       0.232055 0.10583532 0.36593348 0.31282216
000080 4e 4a f4 3d 83 67 38 3e 1b 60 4d 3d 84 38 ee bb
       0.11928235 0.18008237 0.05014048 -0.007269921
000090 03 44 01 bd dd 9b 13 3e 4e 3b dc 3e 73 d4 24 3e
       -0.031559 0.14414926 0.43013996 0.16096668
0000a0 bf 5e a1 3c 61 75 5c bb 24 63 6c 3e 49 da 34 be
       0.019698499 -0.00336393 0.23084694 -0.17661394
0000b0 3d 68 1b 3e bb 4f 26 3d 91 7d 25 bd 94 2e 85 3d
       0.15176482 0.04060338 -0.040402953 0.06503025
0000c0 39 bf 60 bd 79 26 f0 bd 88 ea 30 3d e3 4c 15 3e
       -0.054869864 -0.11726088 0.043192416 0.14580111
0000d0 34 1c 3e 3d 55 b5 d0 3d a1 be 80 3e e4 31 eb 3d
       0.046413615 0.10190836 0.25145438 0.11484125
0000e0 6e 51 56 bd 11 c3 ca 3d 31 5d 62 3e 7f 68 00 3e
       -0.05232375 0.09900487 0.22105862 0.12539862
0000f0 70 bf a8 3c 8b 31 62 3e 33 27 92 3d d1 af 16 3d
       0.020599097 0.22089212 0.07136383 0.036788765
000100 5b 70 83 3e 53 c3 82 3e cb 18 41 bd 19 06 86 3e
       0.25671658 0.25539646 -0.047142785 0.26176527
000110 57 43 36 bc 40 20 7d 3d 55 14 29 3d 17 95 c9 3c
       -0.0111244535 0.061798334 0.041279156 0.024607224
000120 8c b4 a8 3e 10 8d e8 3d 51 92 c8 3c c9 c6 32 3e
       0.32950246 0.113550305 0.024483832 0.17458643
000130 49 0d 3a 3e 69 82 5c 3d de 33 70 bd 51 d7 f3 3d
       0.1816913 0.053835306 -0.058643214 0.11906303
000140 0b ef 31 b9 fe 06 99 bd f5 d0 dc 3d ae 3b 6e 3e
       -0.00016969086 -0.07472037 0.10782043 0.23264953
000150 b3 c6 c8 3d 24 2a 4c 3e 51 d3 2b bd 3a 2f bf 3d
       0.09803524 0.1993795 -0.041949574 0.093351796
000160 89 71 58 3e 20 bc 44 3d 68 82 46 3e 15 a1 3a 3e
       0.2113706 0.048030972 0.19385684 0.1822551
000170 2b 3a ca bc 1e 99 a3 3e ae a3 ca 3e 02 65 09 3e
       -0.02468594 0.31952757 0.39578003 0.13417438
000180 41 af 19 3e fb e4 42 3d 9a 1a 86 3e af 2e 1a bd
       0.1500826 0.047581654 0.2619217 -0.037642177
000190 9d f0 6b 3d 13 81 19 3e 4e 3e 6b 3c ee e2 c3 3c
       0.057602514 0.14990644 0.014358116 0.02391192
0001a0 0a ed 0c 3d 64 02 16 3e 67 d4 74 3e 30 b4 94 3c
       0.034405746 0.1464935 0.2390915 0.018152326
0001b0 75 02 a5 3e 17 66 dc 3d 15 17 34 3e c6 0e 4d 3e
       0.32228437 0.107616596 0.1758693 0.20025167
0001c0 8d ce 9f 3d 11 51 87 3d 2d 98 72 3e e0 f0 51 bd
       0.07803068 0.06607259 0.23690863 -0.051255107
0001d0 b3 0f 2a 3e d6 12 a4 3d e0 c6 65 3e 65 12 d5 3c
       0.16607551 0.08011405 0.22439146 0.026009748
0001e0 bd d9 e6 3d cf ca e2 3d 5d 31 91 3d 48 63 82 3e
       0.11271999 0.11073839 0.070894934 0.2546637
0001f0 25 4e 09 3e 9c 67 2b 3e 50 cd c5 3d a7 bf 8f 3e
       0.13408716 0.16738743 0.09658301 0.28075907

model.3.weight f4 [128]
000000 69 b5 30 3f f8 26 1a 3f f6 30 c5 3e 28 6a db 3e
       0.6902681 0.6021571 0.38513917 0.42854428
000010 b1 23 b4 3e 22 f3 b0 3e 98 5b 48 3f 90 3f 2e 3f
       0.3518348 0.34560496 0.7826476 0.6806574
000020 dd dc 77 3e 0d f6 bb be 98 10 af 3e 23 8e 0f 3f
       0.24205346 -0.3671116 0.34192348 0.5607626
000030 5e a3 82 3e 2f 7b 91 3e ec 0c a6 3e 00 82 0e 3f
       0.25515264 0.28414294 0.32431734 0.55667114
000040 d5 a7 91 3e ae 20 d8 3e 1a d1 2a 3f cc 2f 17 3f
       0.28448358 0.42212433 0.66725314 0.5905731
000050 f8 c0 bb 3e 11 82 1c 3f fa b9 35 3f 66 a5 bf 3e
       0.3667066 0.61135966 0.709869 0.37430876
000060 48 a2 1c 3f 93 ee bd 3e 76 02 d9 3e 02 e0 0c 3f
       0.6118512 0.3709608 0.4238469 0.5502931
000070 19 65 9c be cd f7 a8 3e 2b c9 26 3f 7b 62 13 3f
       -0.3054588 0.33001557 0.6515071 0.57572144
000080 85 2d 36 3f 43 c2 fe 3e bd 74 44 3f db 0f bb 3e
       0.7116321 0.49757585 0.7674063 0.36535534
000090 d9 26 3e 3f 6b a6 92 be d5 0e 46 3f 44 f0 a3 3e
       0.74278027 -0.28642592 0.7736638 0.32019246
0000a0 58 a7 25 3f 27 60 f0 3e f5 b6 01 3f 18 5d d6 3e
       0.6470847 0.46948358 0.50669795 0.418679
0000b0 ec 8a 5b 3e c4 34 8d 3e 4d 92 21 3f d4 8b dc 3e
       0.21439713 0.2757932 0.6311386 0.4307543
0000c0 e5 6f 0a 3f 0d 03 0d 3f 06 d8 52 3f 32 ab 05 3f
       0.5407699 0.5508278 0.82360876 0.5221435
0000d0 c6 4e 44 3f d8 2e 2e 3f 7f 31 1f 3f a2 46 cc 3e
       0.766827 0.6804023 0.621849 0.3989764
0000e0 41 94 f6 3e 84 07 86 3e cc 9c 68 3e a1 5a f1 3e
       0.48159984 0.2617761 0.22716063 0.47139457
0000f0 45 ef da 3e 8e b0 06 3f a1 22 00 3f b1 79 ab 3e
       0.42760673 0.5261315 0.5005284 0.3349128
000100 e1 a8 4f 3f 62 de 46 3f e7 e6 28 3f 5d 57 9f 3e
       0.81117064 0.7768308 0.6597733 0.3112134
000110 48 11 c1 3e 1d 85 b2 3e d2 e2 dd 3e 51 90 2e 3f
       0.37708497 0.34867182 0.43337113 0.6818896
000120 fc a2 12 3f f7 93 22 3f fa fc 3f 3f f2 65 36 3f
       0.57279944 0.63507026 0.74995387 0.71249306
000130 7e 3f 05 3f 7e a0 7c 3f 96 aa eb 3e 1f bc 43 3f
       0.52050006 0.9868239 0.46028584 0.76458925
000140 20 9a 90 3e dd 32 a4 3e fa 0a 27 3f f6 fd 3a 3f
       0.28242588 0.32070056 0.65251124 0.73043764
000150 d7 b5 1b 3f 32 de 31 3f 7a c2 59 3f 66 ae 8e 3e
       0.6082434 0.6947967 0.8506237 0.2786743
000160 fd 9a 1c 3f 5f 7c c9 3e d7 15 ed 3e b7 67 be 3e
       0.61173993 0.393527 0.46305725 0.37188503
000170 c8 54 b5 3e 34 fd 11 3f 3c b8 6e 3f 12 6d dd 3e
       0.35416245 0.5702698 0.9324987 0.43247277
000180 fb f8 2f 3f 61 65 e2 3e a8 ba 31 3f 76 91 eb 3e
       0.6873929 0.4421797 0.6942544 0.46009415
000190 fc c1 c6 3e 52 93 0e 3f 19 78 04 3f 01 91 1c 3f
       0.38819873 0.5569354 0.51745754 0.6115876
0001a0 2e 53 90 3e be d4 e3 3e fc da 2c 3f b9 f1 b0 3e
       0.2818846 0.44498247 0.67521644 0.3455942
0001b0 44 59 4e 3f ff 06 0b 3f 8b 96 cc 3e d9 79 06 3f
       0.8060496 0.5430755 0.39958605 0.52529675
0001c0 84 05 d2 3e 07 56 ee 3e 74 50 4a 3e a2 a2 04 3f
       0.41019833 0.4655001 0.19757253 0.5181066
0001d0 f9 ba 32 3f 51 76 25 3f b8 d8 94 3e 1b 49 33 3f
       0.6981655 0.6463366 0.29071593 0.70033425
0001e0 08 ef af 3e 7e 6e 16 3f bf 90 0b 3f 2f 0b 21 3f
       0.34362054 0.5876235 0.5451774 0.6290769
0001f0 d4 71 0f 3f 92 fb 07 3f c1 af 25 3f b9 30 a2 3e
       0.5603306 0.5311824 0.64721304 0.31677797

model.3.bias f4 [128]
000000 ea 3e 08 be f5 13 cb 3c 90 d5 c5 3c 00 a0 b8 3e
       -0.1330525 0.02478979 0.024149686 0.3605957
000010 78 20 20 3d fd 4a 5f 3e 62 9f 6a be 6e c7 bc be
       0.039093465 0.2180595 -0.22912362 -0.36870903
000020 97 f7 98 be 33 56 c1 3e 52 aa a6 be bc b0 54 be
       -0.29876396 0.37761077 -0.3255182 -0.20770544
000030 c3 78 86 be 3d 9b cb be 3a 07 a0 3d 15 b9 4c 3c
       -0.2626401 -0.39766875 0.07813878 0.012495299
000040 07 c5 ac bd 3f b3 a8 bd 87 1b 4e bd ed 2b 1a be
       -0.084360175 -0.082373135 -0.05031922 -0.15055819
000050 c1 65 78 be 4d b8 88 be c4 e0 30 3e c0 fe 4a be
       -0.24257566 -0.2670311 0.17273241 -0.19823742
000060 4e ed 53 bd 5a 20 1f be a0 c2 b4 bc 8f 46 81 bd
       -0.051739983 -0.15539685 -0.02206546 -0.06312286
000070 7a 32 a8 bd bb 98 80 bc cb ba 89 3d c5 75 3e bd
       -0.08212753 -0.015697828 0.06725081 -0.046499033
000080 a6 ea 94 3e 73 ec 55 bd 2e 40 1d 3e 86 d6 d6 3d
       0.29085273 -0.05222745 0.15356514 0.10490136
000090 7d 91 b0 bd c6 dd 22 be e7 f3 22 bd 7e 95 b8 be
       -0.086215 -0.15904912 -0.039783385 -0.36051553
0000a0 7f d2 63 be ae 1f 1f be dc d1 3a 3e db 45 78 3e
       -0.22248267 -0.15539429 0.18244117 0.24245398
0000b0 6b 9f 9d be 57 a9 82 be 8d f9 a6 3d 1f e4 9e bc
       -0.3078569 -0.2551982 0.08153067 -0.019395886
0000c0 91 6a 0d 3e 9d b4 91 be cd 03 1b be 99 a0 22 3d
       0.13810183 -0.2845811 -0.15138169 0.03970394
0000d0 f6 67 f9 bc 4a 9c 26 be 2e 29 88 3e 2f 72 36 bd
       -0.03044508 -0.16270557 0.26593918 -0.044542488
0000e0 63 5f c4 bd 6f c0 4a 3b db 7c 8b 3e 21 b8 89 bd
       -0.09588506 0.0030937453 0.27243695 -0.06724573
0000f0 aa 71 4f 3e ca f4 de bd 6b 14 34 be 32 4a a8 be
       0.20258203 -0.108865336 -0.17585914 -0.32869107
000100 d1 af 81 bd ca 0e da bd 67 a6 d3 bd ab 4c 43 3d
       -0.063323624 -0.10647352 -0.10334473 0.04768054
000110 c1 55 26 be 78 b3 d6 bd 3b da dd 3d 52 46 2a 3e
       -0.1624365 -0.1048345 0.1083264 0.16628388
000120 cd 7f 0f 3d 3a 2a 9a 3d 08 f9 ba 3d 87 d6 54 be
       0.03503399 0.07527585 0.0912953 -0.2078496
000130 b3 d7 b1 bd 76 d6 0d 3c 10 79 32 3e ee 4d 1f bd
       -0.086837195 0.0086570885 0.17428994 -0.03889268
000140 99 4c 9e be f5 b5 8d bd c0 98 d8 bd e4 65 0b 3d
       -0.30917814 -0.06919471 -0.1057601 0.034032717
000150 26 a8 05 3e 3c ee 4c 3e 28 af 7e bd 5c 7a 54 3e
       0.13052425 0.20012754 -0.06217876 0.20749801
000160 63 cb 0a 3e af c9 16 bd df 41 69 bd 0f c2 59 be
       0.13554148 -0.036813434 -0.056947585 -0.21265434
000170 20 1b 89 be 4b d4 26 3e 72 9b 40 be 27 04 98 3c
       -0.26778507 0.16291921 -0.18809298 0.018556667
000180 1d 79 8c bc 18 68 b8 3d 46 f9 c6 bd 49 4b a0 3e
       -0.017147595 0.09004229 -0.09715514 0.31307438
000190 4e ca 31 be 37 00 4c 3e 70 bb 83 bb be ad d1 3d
       -0.1736233 0.19921957 -0.004020147 0.10238217
0001a0 54 0c 31 bd 16 a5 c9 3d ef 0b 36 bd 41 13 32 be
       -0.043224648 0.09845941 -0.044444975 -0.17390157
0001b0 76 9f 9f bd bc 32 9e bc 71 32 e5 bd f8 6f 01 3d
       -0.07794087 -0.019311301 -0.111912616 0.031600922
0001c0 b4 45 a6 3e de 8e 9b bc 9e 42 81 be 4f e1 fc bb
       0.32475054 -0.018989023 -0.25246137 -0.0077172886
0001d0 4c 22 e5 bd dc ca f4 3d 1f c3 01 bd b8 3a 2a 3e
       -0.11188182 0.11952755 -0.031680223 0.16623962
0001e0 ef 7a b0 bd 4e f5 3f be 7a 02 27 be 09 4e 2c 3d
       -0.08617198 -0.1874592 -0.16309538 0.042066608
0001f0 59 33 a1 3e dc 66 26 bd 61 4e 6a be 70 4e 66 3e
       0.31484488 -0.040625438 -0.22881462 0.22490859

model.3.running_mean f4 [128]
000000 92 96 34 3f 3a 67 9f 3e 37 aa 57 3e 3d 16 b9 3e
       0.7054225 0.31133443 0.21061026 0.3614978
000010 16 14 89 3e 3f 0f 77 3c 47 84 22 3f 05 48 52 3e
       0.26773137 0.015079319 0.6348309 0.20535286
000020 82 6d 1e 3d 9e 95 58 3e 90 59 16 3e 3e 18 a1 3e
       0.038678654 0.21150824 0.14682603 0.31463808
000030 71 71 37 3d 93 dc 7f 3d 9f 5e 2d 3e 64 c6 78 3d
       0.04478592 0.062466215 0.16930626 0.060736075
000040 6b 59 84 3e 53 35 2e 3f e4 9e 68 3e a8 6a 35 3f
       0.2584947 0.68050116 0.22716862 0.7086587
000050 c8 14 ae 3d 8a 0c 06 3f ac 6f c5 3e 90 ef 0e 3e
       0.085000575 0.52362883 0.3856176 0.13958573
000060 3d 6e f1 3e a7 8f b1 3e c8 0e 28 3e d2 25 b2 3d
       0.47154418 0.3467991 0.16411889 0.0869862
000070 0c 7d ef 3e 97 0c 1b 3e b5 19 15 3f fa 43 06 3f
       0.4677509 0.15141521 0.5824235 0.52447474
000080 39 1e a6 3e ed 57 89 3e 87 f9 84 3e d3 ce c7 3d
       0.32444933 0.26824895 0.25971624 0.097562455
000090 fc 8f d2 3d 16 e7 a5 3e b7 29 26 3f 43 b6 85 3e
       0.10281369 0.32402867 0.649074 0.26115617
0000a0 93 61 7a 3e 36 4f 81 3d 73 4d bb 3e 2c 0b a0 3d
       0.24451284 0.063139364 0.36582527 0.07814631
0000b0 d9 62 8f 3e cd 55 89 3e c3 1c 46 3e 9f 45 08 3e
       0.28005102 0.26823273 0.19346909 0.13307808
0000c0 dd 49 41 3d 34 69 39 3d d7 92 e3 3d 67 ff 05 3f
       0.047189582 0.045266345 0.11111992 0.5234284
0000d0 1d 94 03 3e f5 0c 2a 3e 40 5c 05 3f 36 04 2c 3e
       0.1284947 0.16606505 0.5209389 0.16798481
0000e0 dd 12 d7 3d 41 63 85 3d aa 09 d4 3e 8a d1 92 3d
       0.10501645 0.06513072 0.41413623 0.07168873
0000f0 7f 6c 4c 3e 03 78 f8 3e db af 37 3e 70 a1 ac 3d
       0.19963263 0.48529062 0.17938177 0.08429229
000100 bf 23 0c 3f c9 91 03 3f 99 28 63 3d 18 60 f5 3e
       0.54742044 0.51394325 0.05545864 0.47924876
000110 b3 23 9a 3d a4 b9 06 3e d9 8b 01 3e aa e8 ee 3d
       0.0752634 0.13156754 0.12651004 0.11665471
000120 4a ab 01 3f ad bd 66 3e 8c fa 7d 3e a7 ec 69 3e
       0.5065199 0.22533293 0.24802607 0.22844182
000130 02 ef 75 3e c2 d1 52 3e 6d d7 96 3d ce 68 9e 3e
       0.24016955 0.20587829 0.07365308 0.30939335
000140 6b 86 8e 3d 7a aa 63 3d 05 4a 40 3e 41 80 cf 3e
       0.06959232 0.0555825 0.18778236 0.40527537
000150 f6 03 11 3e 87 11 e4 3e d9 bf e7 3d 9a b0 23 3e
       0.14161667 0.44544622 0.11315889 0.15985337
000160 85 10 a6 3e 1c 4f 1e 3e 13 ac b6 3e a9 2e 80 3e
       0.32434478 0.15459865 0.35678157 0.250356
000170 e0 45 dc 3d be aa d2 3e a2 a5 2e 3f ab 47 62 3e
       0.10755515 0.4114589 0.68221486 0.22097652
000180 d8 85 d1 3e c7 0d 1f 3e 7d 16 e8 3e c3 ab 40 3e
       0.40922427 0.155326 0.45329657 0.18815522
000190 f2 d2 2b 3e 18 91 b9 3e c7 42 ef 3d a4 74 81 3e
       0.16779688 0.3624351 0.11682659 0.25284302
0001a0 e2 aa 70 3e c8 7e a8 3e e2 d0 a8 3e c8 65 07 3e
       0.23502687 0.32909226 0.32971865 0.1322242
0001b0 38 9a 0f 3f f0 28 41 3e f2 61 ae 3e 05 2f ec 3e
       0.56094694 0.18863273 0.340591 0.46129623
0001c0 6a 3f 27 3e d0 bb d2 3d 13 e7 d8 3e 6a c0 ab 3c
       0.16332784 0.10289729 0.42363796 0.020965774
0001d0 ab c5 85 3e 3b a4 23 3e 4f 7f ca 3e ec fc 62 3d
       0.2612737 0.15980618 0.39550254 0.055416986
0001e0 8a 64 59 3e ea 39 79 3e 46 9e 0b 3e 95 f1 23 3f
       0.21229759 0.24338499 0.13634595 0.640405
0001f0 b5 7e 56 3e 3f 67 4a 3e c7 b8 7e 3e e2 a8 01 3f
       0.20946772 0.19765948 0.24875174 0.5064832

model.3.running_var f4 [128]
000000 7f 39 4b 3d 65 d6 8e 3d ea 3e a7 3d d7 63 ad 3d
       0.04961538 0.06974486 0.08166297 0.084663086
000010 98 72 82 3d f8 6b 09 3b db d5 25 3c b1 9d 55 3d
       0.06369513 0.0020968895 0.010121788 0.05215234
000020 a0 98 07 3c 02 cd f0 3c e1 fd 04 3d 82 84 c2 3d
       0.008276135 0.02939463 0.03246868 0.0949793
000030 e0 65 0a 3c cf 3b ac 3c 81 ce 87 3d 41 c7 37 3c
       0.00844714 0.021024613 0.06631184 0.011216939
000040 26 b3 be 3d cc 87 1c 3d e3 1a 0b 3c 2c 94 31 3d
       0.093115136 0.038215443 0.008490297 0.0433542
000050 0a 56 97 3c 8d 13 44 3e 1f 92 80 3d 3e 8e db 3c
       0.018473644 0.19148083 0.062778704 0.026801225
000060 80 1a cb 3d 49 4f e6 3d e6 5d 97 3d c3 2b 6e 3c
       0.09917164 0.11245591 0.073909566 0.014536801
000070 7f 9d d2 3d 55 e1 ca 3c aa 80 a1 3d fc 94 a5 3d
       0.10283946 0.02476565 0.07885869 0.08085057
000080 9a d9 03 3e 5e 99 d4 3c 94 f5 05 3e f1 e3 ef 3c
       0.12875977 0.025952037 0.13081962 0.029283496
000090 f0 4c d3 3c 9a b4 bb 3d 25 0c 3a 3d 3d 27 19 3d
       0.025793523 0.091653064 0.04542174 0.037390936
0000a0 3f 44 bc 3d c3 6e 44 3c 29 39 41 3d 6b 62 f1 3c
       0.091927044 0.011989298 0.047173653 0.029465875
0000b0 2f 03 78 3d 2d 17 b4 3d 7d c0 ac 3d 49 ab 4e 3d
       0.06054991 0.08793483 0.08435152 0.05045632
0000c0 ef 27 4d 3c 6f 30 2f 3c 8e 9a a9 3c 99 12 39 3e
       0.012521728 0.0106927 0.02070358 0.180735
0000d0 11 80 f8 3c 8a 98 33 3d a1 75 c8 3c 4e dd 23 3d
       0.030334504 0.043846644 0.024470152 0.040005974
0000e0 b2 00 ea 3c 0b 35 64 3c 4a 0b 03 3e 4a fd 8e 3c
       0.028564785 0.013928662 0.12797275 0.017454762
0000f0 97 c5 56 3d bf f7 23 3e 4c 1e 61 3d cb c0 cb 3c
       0.05243453 0.16012476 0.054960534 0.024872204
000100 bf 63 50 3e c6 bd 8c 3d 07 9b 73 3c 5f 7b 0c 3d
       0.2035055 0.06872134 0.014868504 0.034297343
000110 44 5a 53 3c 84 be b1 3c 79 bc e0 3c 6a 8c 35 3d
       0.012899939 0.02169729 0.02743362 0.044323362
000120 fb 34 c2 3d af a2 5e 3d db 2f cd 3d 41 1a 9a 3d
       0.094827615 0.054354366 0.10018893 0.07524539
000130 ae f4 1c 3d 85 0e 8a 3d b8 3d da 3c 62 cd c5 3d
       0.038319282 0.06741051 0.026640758 0.09658314
000140 7f 07 2c 3c f7 6d 95 3c 24 cd 9a 3d 9c 7f c9 3c
       0.010499834 0.018240912 0.07558659 0.024596982
000150 7a 08 47 3d 00 04 81 3d 0a c4 26 3d ed 43 5b 3d
       0.04859207 0.06299591 0.0407143 0.053531576
000160 7e 71 fa 3c 33 4c 39 3d 34 39 8e 3d 81 13 a8 3d
       0.030571695 0.045238685 0.069445044 0.08206845
000170 5d 75 cf 3c 53 c7 0f 3e af fc 91 3c 4b bb 36 3d
       0.025324518 0.1404088 0.017820684 0.04461221
000180 8c bd c4 3d 63 37 13 3d 1e 9e 06 3e d4 51 86 3d
       0.09606466 0.035941493 0.13146254 0.06558576
000190 5b 25 2b 3d e3 01 8f 3d 3b 76 f9 3c bd 64 e8 3d
       0.04178367 0.06982782 0.030451884 0.11347339
0001a0 8b c3 b3 3d b1 16 a7 3d dc f5 78 3d f5 66 0c 3d
       0.08777531 0.08158625 0.060781345 0.034277875
0001b0 2a 21 92 3c 49 8c 58 3d 64 a3 aa 3d d5 0a 46 3d
       0.01783808 0.05286816 0.083319455 0.048350174
0001c0 c2 47 23 3d 0b 32 12 3d 91 05 e4 3d e4 81 74 3b
       0.039863355 0.035692256 0.11133874 0.0037308866
0001d0 f6 5b 96 3d dc 33 0c 3d d2 77 1e 3d 04 9e 2b 3c
       0.07341759 0.034229144 0.03868849 0.010474686
0001e0 94 fc 07 3d d6 ac e4 3d d7 5b 04 3d 6f 24 4e 3d
       0.03319986 0.11165778 0.032314148 0.050327715
0001f0 a5 f5 61 3d bb b2 5d 3c 45 91 af 3c 1a 52 94 3d
       0.055165906 0.013531382 0.021431575 0.07242222

model.4.weight f4 [128, 128]
000000 bb 74 62 bd 43 b7 4c 3d 76 5a 58 3e 6f c2 45 bd
       -0.055287104 0.04997946 0.21128258 -0.04828113
000010 89 5e 2c 3e e5 e0 93 be 8a 71 d1 bc bd fe 67 3d
       0.16832937 -0.28882518 -0.025566835 0.05663942
000020 a0 f7 4f be 42 4f 5a bd c6 97 d5 bc 78 1b 79 bd
       -0.20309305 -0.053298242 -0.026073348 -0.060817212
000030 41 4c 1b bb 25 c2 bc 3e 27 3a 78 3c 20 1c 25 be
       -0.0023696574 0.3686687 0.015150583 -0.1612401
000040 61 9c 61 3d a5 50 1f 3e 18 01 a3 be fa a4 1f bd
       0.055080775 0.15558107 -0.31836772 -0.038975693
000050 37 b8 12 3d d2 68 5d 3e cf b0 94 bd bf fb 62 3b
       0.035820212 0.21622017 -0.07260286 0.0034634916
000060 23 af 2a 3d 78 68 82 bc 46 b6 29 be 3d ad 95 3d
       0.04167093 -0.015918955 -0.16573438 0.07308433
000070 41 e8 00 3e ff 17 51 3d a4 79 88 bc 00 e6 9c be
       0.12588598 0.051048275 -0.016659565 -0.30644226
000080 a0 30 4e 3e e4 11 cd bd 3b 83 8a 3d a3 61 c1 3d
       0.20135736 -0.10013178 0.067633115 0.09442451
000090 11 f3 a9 3d 13 30 70 3e 23 08 37 bd 9e d9 24 bd
       0.08298314 0.23455839 -0.044685494 -0.0402466
0000a0 1b d4 aa 3d d9 3f 30 3d 79 fe 18 bd 82 56 dd bd
       0.08341237 0.04302964 -0.03735206 -0.10807516
0000b0 f7 de 88 3d 63 da 46 bd 08 6a 06 3e d5 9d 13 3e
       0.06683152 -0.048548114 0.13126385 0.14415677
0000c0 dd 88 49 3d 63 12 86 be 7f a7 03 be f0 6d 92 bc
       0.04920279 -0.26185903 -0.12856863 -0.017874688
0000d0 de cd 36 bc 03 44 07 bd 56 a3 9e bb 2e 95 a1 3d
       -0.011157481 -0.033023845 -0.0048412485 0.07889782
0000e0 5f 9a a5 3d 91 ab be bc 54 79 5b 3d b6 19 30 3d
       0.080860846 -0.023275169 0.053582504 0.04299327
0000f0 9b c0 63 be 2c 9f be 3c c9 7a d6 bd 9d 8a 78 bd
       -0.22241442 0.023269258 -0.10472638 -0.060679067
000100 e0 aa c0 3d 7d 3a 36 bd 9e 1b 36 be b1 98 66 3d
       0.09407592 -0.044489373 -0.17783973 0.05629796
000110 a5 7c 1a 3e 36 95 c4 bb d7 d4 6b bd 95 32 76 bd
       0.1508661 -0.0059992326 -0.057576027 -0.060106833
000120 fd d0 32 bd f1 55 97 bc 61 87 38 3e f7 1f 37 be
       -0.043656338 -0.018473597 0.18020393 -0.17883287
000130 8f 89 80 3d 1a 22 9f ba a2 3c 12 3c 29 bc c4 bc
       0.06276237 -0.00121409 0.008925589 -0.024015503
000140 77 ea 03 3e 98 2f 14 3e 3b 5a fc bd ee fd 73 bc
       0.1288241 0.1447128 -0.123218976 -0.0148920845
000150 b5 bd 52 be b4 38 14 3c 96 b3 ba bd b7 8d 46 3d
       -0.2058018 0.009046722 -0.091162845 0.048474994
000160 df ae bd bd b4 4c 10 bd 1b 45 a4 bd 49 0c 1e ba
       -0.0926187 -0.0352294 -0.08020993 -0.00060290523
000170 7b 6c ec 3d 8d 68 db bd 9e e2 66 be d5 73 4d be
       0.115441285 -0.10713301 -0.22547385 -0.20063718
000180 cc d9 6b bd ab bf 63 3c a0 63 ea bd 4b 77 6e bd
       -0.057580754 0.013900678 -0.11444783 -0.058219235
000190 20 16 96 3d 96 73 45 be 4d 25 dd 3d 4a c1 84 3e
       0.07328439 -0.19282374 0.1079813 0.25928718
0001a0 3b d5 37 3e e7 4c 79 3e 32 6d 3d 3c c3 ff 66 3d
       0.17952435 0.24345742 0.011561679 0.056396257
0001b0 83 34 42 3e 47 e7 9a 3d 15 8e 6b be ae 42 a9 bd
       0.18965344 0.07563644 -0.23003419 -0.08264671
0001c0 08 17 4f bd 74 30 e9 bd 86 e1 1d 3e ce 45 50 bd
       -0.050559074 -0.11386195 0.15418062 -0.05084782
0001d0 de 2b 1e be f0 81 1f 3e c0 fe c4 bd 82 0b 9c 3d
       -0.15446422 0.15576911 -0.09618902 0.076193824
0001e0 8a 4c ee bc e3 d8 18 bd 3e 68 b5 bc 7b 2f 64 3c
       -0.029089231 -0.037316214 -0.022144433 0.013927336
0001f0 1f c8 8c be 15 67 5e bd 21 24 38 be eb 41 a4 be
       -0.2749643 -0.054297525 -0.17982532 -0.3208154
000200 27 91 e2 bd 3b 66 0f 3e 5b 9a ed 3a 12 82 03 3e
       -0.11062842 0.14003842 0.0018127667 0.12842587
000210 b1 60 34 bd 4c 51 12 bd df ee 90 bd 40 19 02 be
       -0.044037525 -0.035722062 -0.07076811 -0.12704945
000220 9d cc 86 3e 62 54 11 bd 56 34 7c bc 1a 24 31 bd
       0.26327983 -0.035480864 -0.015393337 -0.04324732
000230 81 ce 00 3d e3 84 e9 3c 22 cd 8b be 47 31 df 3d
       0.031446937 0.028505748 -0.2730494 0.10898071
000240 a1 bb a5 bd 86 40 fc bc e0 7a 85 ba 26 9e af 3d
       -0.08092428 -0.030792486 -0.0010183714 0.08575086
000250 52 05 cd bd 85 6a 5c 3d 5e ea 3e be 8f 20 31 be
       -0.100107804 0.053812522 -0.18644091 -0.17297576
000260 f4 93 9d bc 5d 8e 4d be f6 78 44 3d e2 05 ca 3d
       -0.019235589 -0.20073839 0.04796692 0.09864403
000270 0a 2e c1 bb 6d df 23 3e 5d c1 06 3e 17 fb 43 3e
       -0.005895381 0.16003199 0.131597 0.19138752
000280 1c 08 9e 3d fb e7 5b be fe dc 30 bd 49 91 89 3d
       0.077163905 -0.21475212 -0.043179505 0.06717164
000290 16 c5 01 be 8a ab 2e 3e 98 45 d7 3a fa ca 79 be
       -0.12672839 0.17057624 0.0016423939 -0.24393836
0002a0 46 12 8c bd ba 1a 82 bd 77 7b 94 bc 84 59 a5 3d
       -0.06839423 -0.06352754 -0.018125279 0.080737144
0002b0 bf 92 58 be 1a 16 e4 3a b6 48 60 3e bf 28 31 bd
       -0.21149729 0.0017401606 0.21902737 -0.04325175
0002c0 8d 6a f4 bd 5d bd fe 3c 4d a4 37 be 01 eb 2c be
       -0.119343854 0.031096155 -0.1793377 -0.16886522
0002d0 62 07 1f be a0 63 c1 bc 25 47 4b 3c b7 c2 04 3e
       -0.1553016 -0.023607075 0.012407099 0.12964903
0002e0 b6 cf 48 bc b3 33 1c 3e ac 7d 46 be 7d cb fb 3d
       -0.012256553 0.15254097 -0.19383878 0.12294672
0002f0 b5 c3 ef 3d c6 99 0a be 62 ca 84 be 12 a1 d4 3d
       0.1170725 -0.13535222 -0.25935656 0.10382284
000300 23 6f 84 3a 14 7f 07 3e a8 1e 7c 3d 4e ce be be
       0.0010103922 0.1323207 0.061552674 -0.37266773
000310 37 a6 27 bd a6 cc c1 bd 31 d0 a2 3d bd bd 2f 3e
       -0.04093 -0.09462862 0.079498656 0.17162223
000320 90 78 4d bd 9b f1 9b 3d 2c 89 d4 bc d6 7b 0e 3d
       -0.050163805 0.07614442 -0.025944315 0.034786068
000330 7e 3b 40 3e 62 d5 1c be f3 c8 86 3d cd 46 b0 3d
       0.18772694 -0.15315774 0.06581297 0.08607254
000340 c1 2b 75 3e 59 d1 db bc 75 f5 a5 bd 0d 24 a2 3d
       0.23942472 -0.026833223 -0.08103458 0.079170324
000350 77 e0 de 3c 68 0a 8d bb f0 47 0f 3c 01 d9 49 3d
       0.027206643 -0.004304219 0.008745179 0.049279217
000360 75 ad 5f 3d 14 f9 05 bc ee f3 72 3d 3c cb 4f 3d
       0.05460878 -0.008177061 0.05931466 0.05073093
000370 c7 7c c7 3d 59 ef 88 3d 5a 77 87 3d 02 d4 d1 bd
       0.09740596 0.06686277 0.066145614 -0.102455154
000380 62 5a 59 bc db b2 33 3d 3c 23 92 3d ff a7 e6 bd
       -0.013266178 0.04387174 0.07135627 -0.112625115
000390 32 f7 9e 3e b3 48 79 be b8 5b d1 3c ee 2a 47 3d
       0.3104797 -0.24344139 0.02555643 0.048624925
0003a0 ce 4e dd 3d 40 f3 4c be f8 7d b1 bc 62 b1 3c be
       0.108060464 -0.20014668 -0.021666512 -0.18427041
0003b0 36 7d 07 3d 4b 9b fe 3d 6c fb 1b be e1 d0 0e be
       0.033078395 0.124319635 -0.15232629 -0.13946868
0003c0 94 68 3e 3c 4c b4 6a bc 04 8e c4 bd b0 99 0f be
       0.011621613 -0.014325213 -0.095974 -0.14023471
0003d0 7e 0e f7 bc 16 e8 0d 3e 70 0d 20 3d 99 b1 68 3e
       -0.030158278 0.13858065 0.039075315 0.22723998
0003e0 51 0e 3d be 96 bd 27 bd db 8f db bd ec e7 c6 3d
       -0.18462493 -0.040952288 -0.10720798 0.09712204
0003f0 1c a4 00 3e cd ae ad 3d 61 a0 78 be 5e ab 4f be
       0.12562603 0.08480606 -0.2427993 -0.20280215

model.4.bias f4 [128]
000000 db 88 0b be ca 78 a7 3d 09 b7 73 bd 3f 66 31 3c
       -0.13626425 0.081773356 -0.059500728 0.0108276
000010 0b f0 bc bb a3 22 2f 3d 71 4e cd b8 93 6a 11 bd
       -0.00576592 0.04275764 -9.7897726e-05 -0.035502028
000020 1c d2 40 bd 8e 0b 12 3d ad 49 a5 3d 32 a4 1e bd
       -0.047075376 0.03565555 0.08070693 -0.038730808
000030 25 4e 0d be 3e 50 b5 bd 91 8e 7d 3c 2c ff 22 be
       -0.13799341 -0.088531956 0.015475885 -0.15917653
000040 b9 c9 3a 3e 5c dd ec 3d 49 f5 d4 bc ed 53 28 be
       0.18241014 0.115656585 -0.025995867 -0.16438265
000050 5d 33 17 be 45 bc 07 be 7d d2 1a bd 0b 4e 05 be
       -0.14765687 -0.13255413 -0.037798394 -0.13018052
000060 4e 4d 69 3e 5a af 30 3e f6 e1 de bd f3 79 7c 3e
       0.22783396 0.17254391 -0.108829424 0.24655895
000070 0c cb be bd 8f 44 0d 3d 64 e2 82 bd b0 b4 3e be
       -0.09316072 0.03448921 -0.06390837 -0.18623614
000080 15 c4 91 3c 19 e7 a3 bd c2 c7 a5 bc 28 ef e8 bd
       0.017793695 -0.08003063 -0.020236854 -0.113737404
000090 b8 ee cb bb df d9 35 be 65 10 c4 3d 5a dd 8a 3d
       -0.006223526 -0.17758892 0.095734395 0.06780501
0000a0 38 48 c8 3d b7 f0 ef 3d 07 d4 6b bd ce 02 b5 bd
       0.097794 0.117158346 -0.057575252 -0.088384256
0000b0 b6 23 32 be 6c a9 e8 3d 07 dc 77 bd 18 84 ea bd
       -0.17396435 0.1136044 -0.06051257 -0.11450976
0000c0 44 3e a8 3c 1b ff 67 bd d8 48 0d 3e 95 2b 0b 3e
       0.020537503 -0.056639772 0.13797319 0.13590844
0000d0 47 6e db 3c f0 4c e8 3d fa ec 7a 3e e1 92 75 bd
       0.026785983 0.113428 0.24504462 -0.059954528
0000e0 74 1d 9b bd dc b5 a3 3d 53 c5 9f bd 56 e2 c7 3c
       -0.07573977 0.07993671 -0.078013085 0.024399918
0000f0 8d 13 d5 3c a1 8e f9 3c f9 78 72 be 93 95 0d be
       0.0260103 0.030463519 -0.2367896 -0.1382659
000100 41 e1 6d 3d bf 6d e8 3d 4a 9a 27 bd 48 80 17 bc
       0.058076147 0.113490574 -0.040918626 -0.009246893
000110 56 18 0c 3e 38 16 92 3d b1 95 06 bd 36 38 8b bd
       0.13681158 0.07133144 -0.0328576 -0.06797831
000120 cc 17 05 38 ca 74 28 3d 8b de 3b 3d e4 4c 78 bd
       3.1731834e-05 0.041127004 0.04586653 -0.060620204
000130 76 79 96 3c 96 e8 52 be 02 f7 10 bd de b5 8d 3d
       0.018368464 -0.20596537 -0.035391815 0.06919454
000140 0f ff 66 3d 0f 8d a2 3d 05 f4 3e bd 37 71 03 be
       0.056395587 0.07937061 -0.046619434 -0.12836157
000150 78 4a 32 3d f2 d3 88 bd c5 b7 34 3e 09 09 67 bc
       0.04352805 -0.0668105 0.17648228 -0.014101275
000160 66 7b a6 3e 04 5d 3d be b0 c0 d5 bc 60 94 39 bd
       0.3251602 -0.18492514 -0.026092857 -0.045307517
000170 5b 69 78 bd 90 07 a7 bd 1c b2 9e bd d0 54 9e 3d
       -0.06064735 -0.08155739 -0.077488154 0.077310205
000180 8b 67 c9 3d b3 74 01 bc 63 d3 42 bd c6 db ee bc
       0.098342024 -0.007901358 -0.047564875 -0.02915753
000190 8e 44 3f 3e 41 69 9f 3d f4 2f dd 3d a2 50 90 3d
       0.18678495 0.077837475 0.10800162 0.070466295
0001a0 8a af 90 3e 52 bf af 3d 53 61 b9 3d e9 2a 54 bc
       0.28258926 0.08581413 0.09051766 -0.012949684
0001b0 51 8e d5 bd 22 77 1c bd 65 3a 44 3e 0c b8 2c bd
       -0.10427535 -0.03819955 0.19162901 -0.04216771
0001c0 9d d1 c3 3c e4 21 1d 3d d5 5e 96 bd 03 0d 02 3e
       0.023903662 0.0383624 -0.073423065 0.12700276
0001d0 70 2e 38 bd 83 98 d0 39 5f af cd 3d 46 b7 86 bd
       -0.04496616 0.00039786482 0.10043215 -0.065779254
0001e0 ce e1 d6 3d e4 e7 5e bc 48 b2 15 bd 2a 6f 08 bd
       0.104922876 -0.013605092 -0.036546975 -0.03330914
0001f0 58 71 40 bc 64 6d 5f 3d 9b c0 6e 3d 9f a1 c7 bb
       -0.011745773 0.054547682 0.05828915 -0.006092265

model.6.weight f4 [128]
000000 81 68 3c 3f 2f 35 8b 3f 6b 03 2c 3f 62 20 2b 3f
       0.7359696 1.0875605 0.67192715 0.6684629
000010 47 8e 1a 3f 08 57 8f 3f 20 50 2f 3f 87 4e 84 3f
       0.6037335 1.1198435 0.68481636 1.0336465
000020 1c 1d 79 3f c4 98 8b 3f a1 91 96 3f 8a 04 7b 3f
       0.9731004 1.0905995 1.1763192 0.980538
000030 3d 74 36 3f f1 fa 6d 3f 14 d1 99 3f fd 57 23 3f
       0.71271116 0.9296103 1.201693 0.63806134
000040 64 16 4a 3f e9 ed a7 3f 75 6f 93 3f a4 66 06 3f
       0.78940415 1.311948 1.1518389 0.5250037
000050 93 41 4f 3f 4a da 71 3f 11 94 53 3f 8a ea 29 3f
       0.80959433 0.9447371 0.82647806 0.66373503
000060 27 e0 84 3f e5 6c ad 3f f1 58 83 3f ea d9 82 3f
       1.0380906 1.3548857 1.0261518 1.0222752
000070 7f 4f 21 3f 15 a9 8b 3f a8 08 84 3f 05 e8 6c 3f
       0.63011926 1.0910975 1.0315142 0.92541534
000080 75 30 19 3f d1 20 70 3f 88 9d 3a 3f f3 fa e4 3e
       0.59839565 0.93800074 0.72896624 0.4472271
000090 a3 ba 6d 3f 9c 0d 94 3f 88 cc 9a 3f 2c 35 67 3f
       0.9286291 1.1566653 1.2093668 0.9031551
0000a0 a8 76 71 3f 43 ee 7d 3f e7 20 77 3f 55 20 87 3f
       0.9432168 0.99191684 0.9653458 1.0556742
0000b0 11 cc 83 3f eb c6 39 3f 31 f1 73 3f 2b 51 80 3f
       1.0296651 0.7256915 0.95289904 1.002477
0000c0 74 52 3b 3f 25 97 63 3f 0a f0 66 3f 2d 36 74 3f
       0.7317269 0.88902503 0.9021002 0.95395166
0000d0 5c 91 61 3f b8 fe 8e 3f ba 1b a3 3f 87 d9 81 3f
       0.88112426 1.1171484 1.2742836 1.0144509
0000e0 62 68 80 3f ec 4e 83 3f 54 f7 10 3f 17 93 73 3f
       1.0031855 1.025846 0.5662739 0.95146316
0000f0 5f fe 89 3f ee 36 4c 3f f9 b0 45 3f 8c 05 6c 3f
       1.0780753 0.79771316 0.77223164 0.92195964
000100 e3 e7 76 3f 5b 72 25 3f 0e 70 0e 3f 29 5c 31 3f
       0.9644758 0.6462762 0.5563973 0.6928125
000110 53 30 73 3f 6d f9 a9 3f 10 13 94 3f 5a 47 75 3f
       0.9499561 1.3279244 1.1568317 0.95812
000120 f8 b1 47 3f 33 d5 a6 3f ab 2a a7 3f 58 24 0b 3f
       0.78005934 1.3033813 1.3059896 0.5435233
000130 b8 56 91 3f 6a 75 ed 3e b7 20 a4 3f a9 a2 6b 3f
       1.135459 0.46378642 1.2822484 0.92045075
000140 cf 85 84 3f f7 e3 99 3f dc 84 1e 3f 3b 3c 05 3f
       1.0353335 1.2022694 0.6192148 0.5204503
000150 0c f2 77 3f a7 ed 41 3f 3d 97 a7 3f 01 2d a8 3f
       0.9685371 0.75753254 1.3093029 1.3138734
000160 92 20 6b 3f f3 be 2e 3f 0b 0c ad 3f 5d a4 4b 3f
       0.91846573 0.68260115 1.35193 0.79547673
000170 e2 9e 8e 3f 12 9f 47 3f f6 16 87 3f a2 b6 98 3f
       1.1142237 0.779771 1.0553882 1.1930735
000180 f2 0b 8e 3f 0d ad 6f 3f 4e e7 6e 3f db c0 57 3f
       1.1097395 0.9362343 0.9332169 0.8427865
000190 a4 f9 aa 3f 4d 08 48 3f b9 9d 99 3f 81 21 75 3f
       1.3357434 0.78137666 1.2001258 0.9575425
0001a0 44 89 5b 3f fe 8f a0 3f 7a c6 8e 3f 7a 71 87 3f
       0.85756326 1.2543943 1.115432 1.0581505
0001b0 5b 12 5e 3f 28 7c 9b 3f ce af 84 3f 46 a5 8e 3f
       0.8674676 1.2147264 1.0366151 1.1144187
0001c0 24 97 77 3f b2 f3 77 3f 25 d2 84 3f 8e c4 5f 3f
       0.96715 0.96856225 1.0376631 0.87409294
0001d0 36 0f b9 3f 85 7e a3 3f b6 0f 4e 3f 09 48 9d 3f
       1.4457767 1.2772986 0.80492723 1.2287608
0001e0 4b 68 b0 3f da 67 37 3f f7 a9 6a 3f 5e f0 94 3f
       1.3781828 0.7164284 0.91665596 1.1635854
0001f0 86 95 8e 3f 72 2c 96 3f b6 7f 90 3f e9 a5 94 3f
       1.1139381 1.1732314 1.1288974 1.1613132

model.6.bias f4 [128]
000000 b1 6a d0 bd dd 60 af bc 14 77 b3 bc 22 d7 25 3d
       -0.101766 -0.021408493 -0.021907367 0.04048837
000010 a3 b0 18 be 39 c8 09 3b 08 18 97 3c fb 14 29 bd
       -0.14911132 0.0021023883 0.018444076 -0.041279774
000020 ac 6e 47 3d 27 dc 62 ba 90 1e 3e bd 49 85 40 3d
       0.04868953 -0.0008654021 -0.046415865 0.04700211
000030 87 4f 7b bc 75 b2 93 3b cb 53 5f 3d a2 0c b0 3d
       -0.015338785 0.0045073577 0.05452327 0.085961595
000040 24 6a 86 bb f6 4d e4 bc 7c 4e 0c 3e 6b 48 fe 3c
       -0.0041020084 -0.027869206 0.13701814 0.031040391
000050 2d 3b f5 3a eb c0 a2 3c 43 a2 5d bd c2 e0 d9 3b
       0.0018709652 0.019867381 -0.054109823 0.0066491077
000060 40 8e 1d 3d 7a 02 46 3d a4 6a 5e bc ad dc b3 bc
       0.03846574 0.048342206 -0.01357523 -0.021955812
000070 cb 26 82 3c d8 9f 84 bd a0 59 43 bd 4b 92 61 3c
       0.015887639 -0.064758 -0.047692895 0.013767789
000080 48 b7 0e 3d b2 6a 00 bd 34 12 e3 3a 37 b3 4c bd
       0.03484276 -0.031351753 0.001732415 -0.0499756
000090 98 2a c0 bb 94 ff 37 bd 79 03 af bc ab a7 0d 3d
       -0.0058644526 -0.044921473 -0.02136396 0.03458373
0000a0 18 1c 9d bc 31 01 4a 3c 2a 13 53 bd 9d ff 86 bd
       -0.019178435 0.012329386 -0.05153195 -0.06591723
0000b0 36 7c 6a bd 50 56 15 bc e0 41 94 bc 6f d2 95 bd
       -0.057247363 -0.009114817 -0.018097818 -0.07315528
0000c0 a4 8e c8 3a 58 48 59 bb 48 72 ec bd 5e e7 5d 3d
       0.0015301299 -0.0033154693 -0.11545235 0.054175727
0000d0 ca de 06 3a 12 06 84 3c 96 1c 86 bd 3c 33 81 bd
       0.00051448925 0.016116176 -0.06548421 -0.063086
0000e0 17 7a 59 3d 3b b5 3f bd c6 dd 4a bc cb 80 d2 ba
       0.05309495 -0.046803694 -0.0123819765 -0.0016060112
0000f0 fd da 5b bd 59 87 1f bd 8a 17 ae bb f6 af 8a 3b
       -0.05367564 -0.038947437 -0.0053128647 0.004232402
000100 94 dd c7 bc 03 25 fa 3c d3 15 36 bd b7 e2 22 3d
       -0.024397649 0.030535227 -0.044454407 0.039766993
000110 c0 42 29 3d 70 7b a5 bd bb d0 cd bd f4 3a 40 bb
       0.041323423 -0.080801845 -0.10049578 -0.0029332014
000120 3b 60 91 bb 1b 59 f3 39 99 c1 86 bd e9 4f 91 bb
       -0.0044365204 0.0004641496 -0.065798946 -0.004434575
000130 c4 42 49 3c c7 44 02 bd c5 2d fc 3c ed a1 e1 ba
       0.012283985 -0.031803872 0.030783543 -0.0017214395
000140 c4 dd e4 bb ff d8 f1 bb 10 18 eb 3c 2f 4a a5 3d
       -0.0069844443 -0.0073806043 0.028697997 0.0807079
000150 6d cd 81 3c 23 6e 5a bc 50 8b 61 3d 54 0d 99 bd
       0.015845025 -0.013331923 0.0550645 -0.07473245
000160 50 2b 0f 3d d2 80 0c 3c 9a ad 7c 3c f0 7a 70 bd
       0.034953415 0.008575635 0.015422249 -0.058710992
000170 9a b4 3c 3c 49 67 ad 3a 86 7a f4 bc a9 e9 30 3d
       0.011517668 0.0013229634 -0.02984358 0.043191586
000180 6a e6 a0 bc 4f 28 70 bd c3 95 ec bc 20 0b 43 3d
       -0.01964112 -0.05863219 -0.028880006 0.04761803
000190 d6 46 70 bc 65 4d a0 3d 7f c9 e9 3c cf a5 36 3c
       -0.014665326 0.07827262 0.028538464 0.01114793
0001a0 6d 16 22 bd aa 1c 31 ba c9 d7 fd 3c 5b a2 7e 3c
       -0.03957217 -0.00067562854 0.030986683 0.015541638
0001b0 0b e8 3f bd cd 31 8f 3c a8 68 84 3c 9f b2 2e 3d
       -0.046852153 0.017479802 0.016163185 0.042650815
0001c0 dd 73 dd bd 59 a8 d3 3c 3d 94 ec bd b7 47 de bc
       -0.10813115 0.02583711 -0.11551712 -0.027133806
0001d0 f9 e2 22 bc a1 2f a3 3d 93 34 cf 3b 0c b9 e5 bc
       -0.00994181 0.07968069 0.006323406 -0.028042339
0001e0 fd e2 02 bd ee 50 ef 3c b7 07 c9 ba 7e 09 11 bc
       -0.031954754 0.029213395 -0.0015337382 -0.008852361
0001f0 6b d4 da 3c 76 6c b7 3b 47 3d 8c bd e8 cb 1b 3d
       0.026712617 0.0055976463 -0.06847625 0.038036257

model.6.running_mean f4 [128]
000000 63 f1 d5 3e a0 c9 48 3f b7 11 bb 3e 05 49 0b 3f
       0.41785726 0.78432655 0.36536953 0.54408294
000010 de 02 c1 3e 12 b1 a4 3e 8d 5a 95 3e 3f 8f 34 3e
       0.376975 0.32166344 0.29170647 0.17632769
000020 69 8b 31 3f 10 37 af 3e 2a a4 4e 3d 21 1b 09 3f
       0.6935335 0.34221697 0.050449528 0.5355702
000030 48 be 42 3d 5e e1 67 3e eb eb ef 3e dd 77 bd 28
       0.047544748 0.22644565 0.4685968 2.1035198e-14
000040 22 07 40 3f 15 cf 4c 3f 8b 78 04 3f 64 0c 10 3e
       0.75010884 0.8000348 0.51746434 0.14067227
000050 ca 70 1a 3d 44 98 0a 3e 10 12 cf 3e 42 ab d7 3d
       0.03770522 0.13534647 0.40443468 0.10530712
000060 b8 c3 a0 3f 91 d3 3f 3f bd f9 a3 3e 08 8f b3 3f
       1.2559729 0.749322 0.32026473 1.4028025
000070 c0 cb 0d 3e cd d4 cf 3e 09 03 91 3e 04 00 00 00
       0.13847256 0.40592042 0.28322628 6e-45
000080 56 77 97 3e d0 e9 ae 3d 78 3e dc 3d 1c 8c 50 3e
       0.29583234 0.0854069 0.107541025 0.20365947
000090 e9 37 26 3f 9d b2 52 3b 96 6f 5a 3f d4 55 45 3f
       0.6492906 0.003214992 0.85326517 0.7708409
0000a0 9b 7d 34 3f 6a 75 5e 3f ea 8f da 3c 1a cc 9c 3d
       0.7050416 0.8689791 0.026679952 0.07656117
0000b0 8c 81 f1 3d 44 c1 2a 3f 2b 03 d3 3e 02 28 a9 3d
       0.11792287 0.6670115 0.41213354 0.08259584
0000c0 89 ca fc 3e 4e 7f 92 3d e5 9f 4c 3f 5c 9b 64 3f
       0.49373272 0.07153188 0.7993148 0.8929956
0000d0 3c 43 17 3f 12 c9 a8 3e 14 64 97 3f a8 eb 25 3e
       0.59086967 0.32965904 1.1827416 0.16203177
0000e0 ac b3 61 3e dc 46 4c 3f 0e 1c d0 3e 5e be d5 3d
       0.22041196 0.7979562 0.40646404 0.104367
0000f0 5b 5d 27 3f 24 dd e4 3e ed e6 97 38 76 4b 4c 3e
       0.65376824 0.44699967 7.2432544e-05 0.19950661
000100 61 a7 8e 3f 79 f5 45 3f ec c8 a9 3e 32 97 82 3d
       1.114483 0.77327687 0.33161104 0.063764945
000110 64 57 25 3f 33 4b f7 3e 58 13 27 3e 8d 75 b5 3d
       0.6458647 0.4829956 0.16315973 0.08860312
000120 81 f3 be 3d 35 2a ca 3e 95 86 eb 3e b9 00 1b 3b
       0.093237884 0.39485326 0.46001115 0.0023651554
000130 99 28 26 3f 3e 74 8e 36 11 61 8b 3e a7 7c 3b 3f
       0.649057 4.245462e-06 0.27222493 0.7323708
000140 7d 5b 87 3f ee 93 b9 3e 2e fe 9c 3d 04 00 00 00
       1.0574795 0.36245674 0.076656684 6e-45
000150 94 2c 9b 3e c9 e4 af 3e 9e c4 83 3f 99 ae f9 3e
       0.30307448 0.34354237 1.0294378 0.4876602
000160 82 74 97 3f 16 4e 15 34 85 71 9d 3e fa 88 eb 3e
       1.183243 1.3905114e-07 0.3075067 0.46002942
000170 a3 0b 1d 3e ae 32 40 3e 5b ee b9 3e 0a ef ae 3e
       0.1533647 0.18769333 0.36314663 0.34166747
000180 01 85 0c 3f ba 1b 45 3e f6 28 91 3e 1e ef 84 3e
       0.5489045 0.19248858 0.28351563 0.25963682
000190 cd 72 82 3f 3f 92 bb 3e d5 1d ca 3e 83 c5 42 3f
       1.0191284 0.36635014 0.39475885 0.7608263
0001a0 fb d3 ba 3f af 2c 36 3f ad fc 3b 3e 1a 23 ad 3e
       1.4595941 0.7116193 0.18358107 0.33815843
0001b0 ae b4 8a 3e 72 da 9a 3e d2 9d 65 3f 2a cc 53 3e
       0.27090973 0.30244786 0.8969394 0.20683351
0001c0 f9 3f 14 3f b9 53 ee 3e a6 c7 8b 3e 5c 83 bd 3e
       0.57910115 0.4654825 0.27300757 0.37014282
0001d0 59 f8 d7 3e 68 42 21 3f 1d 7b 52 3f ba 4d ca 3e
       0.42181662 0.6299195 0.82219106 0.39512426
0001e0 30 bd 36 3f 70 cd 2a 3f 1e 20 dc 3d 75 72 17 3f
       0.7138243 0.6671972 0.10748313 0.5915902
0001f0 d2 70 1e 3f fd 56 a3 3e 6c 59 02 3f 6b 79 d9 3e
       0.618909 0.31902304 0.50917697 0.42475447
