critic_checkpoint.pth (torch_old, 89745 bytes, 9 tensors)

model_input.0.weight f4 [128, 33]
000000 0f 28 29 3e ec 9d 8e 3d 82 a1 21 3e ac 60 5f 3d
       0.16519187 0.06963715 0.15784267 0.054535553
000010 d3 64 cc be bc b1 e5 3c a3 a5 a0 3e 08 30 57 3d
       -0.39920673 0.028038852 0.3137637 0.05253604
000020 1f ae 2b 3c 14 fb 4e 3e 30 2f 7e bd 95 ac 92 bd
       0.010478525 0.20212966 -0.06205672 -0.07161824
000030 3b c9 65 3d 78 80 d0 bd 06 6c 9a bc 8c 5e 0f 3d
       0.05610011 -0.101807535 -0.018850338 0.035002276
000040 e3 37 20 3f a5 41 39 3e 50 26 21 be ce 75 d1 3e
       0.62585276 0.18091448 -0.15737271 0.4091019
000050 13 60 fb 3b 1e ee b3 3d dc ec fa 3b d3 0e 2a be
       0.007671365 0.087856516 0.0076576304 -0.16607217
000060 a5 26 9a bd f7 87 6b bc 4c 06 39 3d 92 a8 a0 be
       -0.07526902 -0.014375678 0.04517202 -0.3137861
000070 92 a8 d1 bd 4b cb 2a be 04 e0 2b 3d 88 76 7a 3d
       -0.1023723 -0.16679113 0.041961685 0.061148196
000080 bb 7d c1 3e 80 9b d8 bc 2d 45 f1 bd 4b 3b d7 3d
       0.37791237 -0.026441336 -0.11780772 0.10509356
000090 74 8e ab 3d 14 c2 e7 3d 17 1d 16 3f 3f 13 ed be
       0.0837678 0.11316314 0.5863814 -0.46303746
0000a0 76 da 43 bd 70 5f c8 bd 6e 60 1a 3e 50 3d 15 be
       -0.047815762 -0.09783828 0.15075848 -0.1457417
0000b0 b1 e7 d6 3a 26 0f 63 3d e9 25 0e 3e a0 a6 da 3c
       0.0016395954 0.05543437 0.13881649 0.026690781
0000c0 a0 dd 8d 3c b2 30 be 3b b7 0b 8e 3e b5 84 71 bd
       0.017317593 0.005804145 0.27743313 -0.05896445
0000d0 96 6e 9d bd 3d cc 5e 3b 10 e5 98 bc 53 53 3c 3d
       -0.07687108 0.0033996247 -0.018663913 0.0459779
0000e0 ef a6 3e be 66 4c e5 3c a4 db 87 3d 61 be 82 be
       -0.18618368 0.027990531 0.0663369 -0.25535873
0000f0 c8 7d 12 3e 5a 37 96 bc e2 27 bd bd 1e 33 1b 3b
       0.14305794 -0.01833694 -0.09236123 0.0023681591
000100 4a cd 22 3e 7c 8d b1 bd 61 86 2b be 4c 11 47 3d
       0.15898624 -0.08669564 -0.1675048 0.04860048
000110 ef fd 39 be b3 6d b0 bd 8f dc 12 3e cf ed fb 3e
       -0.18163274 -0.086146735 0.14341949 0.4920487
000120 5d be d6 3b db d6 5a 3d 52 4c 63 be a1 09 86 3d
       0.006553455 0.05342756 -0.22197083 0.06544805
000130 90 fd bb bc 1e dc af 3c 70 47 09 bd 84 8d 58 3e
       -0.022948056 0.021467265 -0.033515394 0.21147734
000140 54 ac 01 be c8 06 86 3e f5 59 99 3c a5 77 1d be
       -0.12663394 0.2617705 0.018719653 -0.15377672
000150 1f 1d 7f 3c 98 1d 8b 3d e2 e4 84 bc 91 53 2c bd
       0.015570908 0.06792754 -0.016222421 -0.042071883
000160 e4 c1 13 bd 32 0f 89 3d d1 97 55 bd a9 16 55 3c
       -0.03607358 0.066923514 -0.052146737 0.013005891
000170 a6 18 09 be 7a ec 35 3d 9e 03 5f be b3 2e 8d bd
       -0.13388309 0.044414975 -0.21778724 -0.06893673
000180 5e b2 19 be c8 a5 29 3e cc d3 86 bc c3 ab bd bd
       -0.15009448 0.16567147 -0.016458414 -0.092612766
000190 b6 fd b9 3d fe 28 9b 3e 8c 9d 01 bd d7 de b9 3d
       0.09081595 0.30304712 -0.03164439 0.090757065
0001a0 e1 0d 8b bd 59 b6 15 3f ce 90 06 bd e1 99 c1 be
       -0.067897566 0.58481365 -0.03285294 -0.37812713
0001b0 b6 e3 41 be ab 71 4f 3d bc 2e 3b bc 19 bf 45 bc
       -0.18934521 0.05064551 -0.011424717 -0.012069487
0001c0 b0 e2 1f 3e d2 50 bb bc 40 f9 64 bc 21 af 02 be
       0.15613818 -0.022865687 -0.013975441 -0.12762119
0001d0 40 8d 76 3d d8 52 12 3e 95 59 55 be ed 5b 1d bd
       0.0601933 0.14289415 -0.20834954 -0.038417745
0001e0 fb 53 a9 3d e8 89 c3 bd d8 57 1e 3d 11 a4 13 bd
       0.08267971 -0.09547788 0.038657993 -0.036045138
0001f0 eb 72 9f bc 31 b1 a5 3b c0 e2 06 3e d6 f0 82 be
       -0.019463977 0.0050565233 0.13172436 -0.25574368
000200 68 ac 9f 3d a3 6c a5 be 09 a1 9c bd 49 25 d0 3e
       0.07796556 -0.32309446 -0.076479025 0.40653446
000210 7b db 2f be b5 fb 05 3e 01 c1 96 bd e8 35 98 3e
       -0.17173569 0.130843 -0.07361031 0.29728627
000220 36 15 07 be ed 63 e8 3e 05 9e b6 be ed 78 b4 3d
       -0.13191685 0.45388737 -0.35667434 0.08812127
000230 83 e4 38 bc 59 8b f1 bd 26 c4 0e 3c 3a 51 ac 3c
       -0.01128495 -0.117941566 0.008713758 0.021034826
000240 bb 79 e0 bc 41 2d c7 3d 8a 12 db 3d a4 35 0b 3e
       -0.027401796 0.097254284 0.106968954 0.13594681
000250 88 93 55 be b5 e7 96 3e d4 22 71 bb 1b bd 52 3e
       -0.2085706 0.29473653 -0.003679444 0.2057995
000260 66 78 c9 bc b2 d1 30 bd ec 33 e4 bb 4e fc 19 bd
       -0.024593543 -0.04316873 -0.0069641974 -0.037594132
000270 3d e0 95 3d d1 6e 8b bd 1a 91 64 bd 0e b3 62 be
       0.07318161 -0.06808246 -0.055802442 -0.22138616
000280 3f 9f de bd e0 cb 2c 3e 78 2b 3c bb 40 45 9a 3d
       -0.108702175 0.16874647 -0.0028712433 0.0753274
000290 81 64 12 be ab c4 ff 3c 72 be bc bd c3 bd 3a 3e
       -0.14296152 0.031221708 -0.09216012 0.18236451
0002a0 3b b7 b4 bb 6b bc d9 3e c7 72 90 3d 30 7c 41 be
       -0.005515007 0.42526564 0.07053142 -0.1889503
0002b0 2c 49 77 3d 57 6f 7e 3e 1f cb 0c 3e 63 15 08 3c
       0.060372517 0.2484716 0.1374936 0.00830588
0002c0 ca 51 94 bd b4 55 36 bd 11 c8 93 3d 40 97 bc 3d
       -0.072421625 -0.044515327 0.07215894 0.09208536
0002d0 2e 27 68 be 2c 3b 7e 3c e4 5c 24 be 68 81 b0 3e
       -0.22671196 0.015517037 -0.1605106 0.3447373
0002e0 6f 89 ed 3c 4d 84 85 3c 80 1a 19 be 14 bb cd bc
       0.028996198 0.016298437 -0.14951515 -0.02511362
0002f0 98 53 e9 bd de 16 af 3b 91 78 a5 bd 2b 67 5e bd
       -0.11392897 0.005343302 -0.08079637 -0.054297607
000300 c7 21 fc bc 5f 3c 88 3d 00 d8 4d bd 11 41 12 bc
       -0.030777825 0.0665214 -0.05025482 -0.008926646
000310 fa b2 06 3e ac d4 0f 3f 5a 79 95 be 81 79 5a 3e
       0.13154212 0.56183887 -0.29194146 0.21335413
000320 5c 6f 08 3e 82 75 84 3c 02 3e 35 bd 5e a6 95 bd
       0.1332373 0.016169313 -0.04424859 -0.07307123
000330 10 3e 6e 3e d6 66 94 bd 84 84 3e bd d6 6a db 3d
       0.23265862 -0.07246177 -0.046513095 0.10713737
000340 7a 16 f9 3c 85 3a e1 3d e4 3a 45 bc 79 53 08 3e
       0.030406225 0.1099749 -0.012037966 0.13313092
000350 1c 80 42 be 19 f8 67 bd 99 a2 25 3e 62 4e c8 3e
       -0.18994182 -0.05663309 0.16175307 0.391223
000360 bc 88 93 be 37 bd 4d be c9 42 98 bd 1b 1b ae 3d
       -0.28815258 -0.20091711 -0.07434613 0.08501264
000370 6a 1b 13 be 60 87 27 3e 49 03 e1 3c bb 80 f5 bc
       -0.14365926 0.16360235 0.027467387 -0.02996861
000380 fe 2f 25 3e 9a 65 b6 3e 5f 76 09 3d 08 e1 ec 3d
       0.16131589 0.3562439 0.033560153 0.11566359
000390 bc 1a 50 be d4 4c d3 3d 41 bc 0b 3f 6a 65 8c 3c
       -0.20322698 0.10317388 0.5458413 0.017138202
0003a0 1d 3c 7a 3d e9 38 d6 3a 2c 47 87 bd 62 5a 39 bf
       0.061092485 0.0016343865 -0.06605372 -0.7240354
0003b0 14 b4 16 3e 86 8a f6 be 3f 63 2c be 48 e4 b4 3d
       0.14717132 -0.4815256 -0.16834734 0.08832604
0003c0 91 7c 9e bd f1 7d cb ba f8 0f 0e 3c 61 94 dd bd
       -0.07738603 -0.0015525204 0.008670799 -0.10819317
0003d0 8a 4b 21 bd ca 98 1b 3d cf 0e 35 be fd 42 15 3f
       -0.03937868 0.037987508 -0.1768143 0.5830534
0003e0 02 73 47 3e 25 8a 3b 3e 53 58 45 3e a5 45 3d bd
       0.19477466 0.18314417 0.19271974 -0.046208996
0003f0 5b 4e a7 bd 5f 39 4f bd 2d bb 03 3d a5 fb fa 3b
       -0.08169242 -0.050591823 0.032160927 0.007659393

model_input.0.bias f4 [128]
000000 f8 04 91 3e 58 9e c1 3d 5a e5 04 be 5c 0f ef bd
       0.28324103 0.0945403 -0.12978116 -0.116728514
000010 02 2a 5c 3e 2b 6f 54 3e 95 dc 53 be 7f ff d7 3d
       0.215004 0.20745532 -0.20689614 0.10546779
000020 22 63 2d 3d 23 e3 17 be 17 5d 0d 3e 24 1d ad 3d
       0.04233087 -0.1483274 0.13805042 0.08452824
000030 f2 31 e6 3d 52 a4 f5 3d 24 94 62 3e ef 26 82 3e
       0.11239995 0.11994232 0.22126824 0.2542033
000040 10 de 1e 3e c8 4a 01 bc c8 37 03 be fb 14 53 3e
       0.15514398 -0.007891364 -0.12814248 0.20613472
000050 35 a1 e3 bc 0e 20 e3 3d 64 e6 52 bd 19 0b d6 3d
       -0.02778683 0.11090098 -0.05148925 0.104513355
000060 ad 7f d8 3c e4 7d 75 3d 2f 62 6d 3d 9a d6 4a 3e
       0.026428068 0.05993451 0.057954963 0.19808426
000070 8e 8f bd 3e 2c 7d 0f be 68 ef b5 bc 95 70 b0 3e
       0.37023586 -0.14012593 -0.022208884 0.34460893
000080 8c 57 b6 bd 33 51 aa 3d b3 e3 a6 3d 4e d6 0a 3e
       -0.08903417 0.08316269 0.08148899 0.13558313
000090 61 d7 8f 3d 8d 2f b4 bd e6 e2 03 3d 39 59 3d 3e
       0.07023502 -0.08798132 0.03219881 0.18491067
0000a0 26 98 23 be dc e6 8c 3e 3d 5a e6 bb 52 85 58 3e
       -0.15976009 0.27519882 -0.0070298 0.21144608
0000b0 3d b4 b5 3d 1a 58 c9 be 62 3f 15 be 29 6a 45 3e
       0.08872268 -0.3932503 -0.1457496 0.19278778
0000c0 d6 20 b8 bd a7 d3 9a 3d a0 82 0b 3e c6 e3 2c 3d
       -0.08990638 0.07559901 0.13624048 0.04220941
0000d0 ca b0 ba 3d de 34 d8 3c 8b e6 17 3e c5 ff df 3c
       0.09115751 0.026392397 0.14834039 0.02734364
0000e0 87 23 87 3e 53 96 82 bd 0d c1 ac 3e 23 a4 80 3e
       0.26394293 -0.06376328 0.33741036 0.25125226
0000f0 42 a4 de 3c e6 c2 b0 3e dd e3 4e 3e 15 c4 85 3d
       0.027177934 0.34523696 0.2020411 0.0653154
000100 9c 83 e1 3c ad dc 82 3d f5 c5 05 3e b8 f1 3c 3e
       0.027528577 0.06389747 0.13063796 0.18451583
000110 3b b9 bc 3c 0f 6e 71 3e b9 fc 55 3e 0c 0b bc 3d
       0.023037544 0.2357714 0.20897187 0.091817945
000120 27 13 38 3d b3 83 24 bd 68 bf a3 3e 1c f8 33 3e
       0.04494014 -0.04016466 0.3198197 0.17575115
000130 91 33 59 3e 4e 9d 5d 3e 8b ee c3 bd 2c 72 cd bd
       0.21211077 0.21642038 -0.09566983 -0.10031542
000140 97 cd 3b 3e f1 1b bd 3c 1e 46 52 3e 96 65 58 bc
       0.18340145 0.023084613 0.2053456 -0.013207814
000150 d8 cc 3a bd 2b 27 ae 3c 86 74 50 bd 9c fa c4 bc
       -0.04560551 0.021258911 -0.050892375 -0.024045281
000160 ec aa 96 3e 8d 7c 56 3e 60 13 6b 3c e7 6e 9f 3d
       0.29427278 0.2094595 0.014347881 0.07784825
000170 bd 9f 04 3e f2 ce a8 3d cc d2 f8 bd 73 e7 95 3d
       0.1295156 0.08242597 -0.12149581 0.07319536
000180 06 3b ed 3d 27 1b b9 3e 4f 8c 16 bd 3d 56 58 3c
       0.115835235 0.36153528 -0.036754902 0.013204155
000190 3c df 93 3e 29 04 63 bd 5c 33 85 3c 3b 4f 23 bd
       0.28881252 -0.05542389 0.016259842 -0.039870482
0001a0 08 8a ac 3d 87 67 8e bd dd 5b 89 3e a2 9d ff 3d
       0.08424765 -0.0695334 0.268279 0.12481238
0001b0 8b 09 9e 3d f6 68 bd 3e 56 cb 0f 3e 14 0d b2 3c
       0.07716664 0.3699414 0.1404241 0.021734752
0001c0 88 c2 c2 bd 8f 43 4f bd 68 1a 01 3f e5 a9 0a 3e
       -0.0950976 -0.05060154 0.5043092 0.13541372
0001d0 d2 53 1f bd eb 30 8e 3e ed 65 62 3e 94 72 fa 3d
       -0.038898297 0.27771696 0.22109194 0.12228885
0001e0 2f 3e 0c 3e 30 1a 25 3e 75 91 2d 3d 46 32 09 be
       0.13695596 0.16123271 0.042375047 -0.13398084
0001f0 8a 5c 8f 3e db d8 80 3d d2 7b 59 3d 45 2a cb 3d
       0.2800029 0.06291362 0.0530966 0.09920172

model_input.2.weight f4 [128]
000000 ea 37 72 3e b1 0c 82 3e 48 fe bd 3e 4d 25 d9 3e
       0.23654142 0.25400308 0.37108064 0.4241127
000010 e6 89 8d 3e 63 e7 c1 3e c8 6c c3 3d 15 f8 8f 3e
       0.2764427 0.37871847 0.09542233 0.2811896
000020 d1 76 03 3f ef 9e 7e 3e 53 8c fc 3e 69 07 3d 3e
       0.51353174 0.24865316 0.4932581 0.18459858
000030 98 9c 84 3e 8a 04 b5 3d 1e 5f b9 3e e3 e1 02 3f
       0.25900722 0.088387564 0.3620538 0.51125926
000040 ec 84 66 3e d7 84 d4 3e ce 94 3c 3f f9 42 a6 3e
       0.22511643 0.415076 0.7366456 0.3247297
000050 49 c6 05 3f 0b 7b d5 3e 63 cf b2 3e ec 3e 16 3f
       0.52255684 0.41695437 0.34923849 0.5868976
000060 ba 76 02 3f 1e 95 7a 3e 47 92 10 3f 24 39 63 3e
       0.5096241 0.24470946 0.564732 0.22189766
000070 ee 40 58 3e 37 35 40 3f 13 b7 0b 3f 12 db cd 3e
       0.21118519 0.750812 0.54576224 0.402062
000080 40 4a ac 3d 13 ce af 3e 52 95 cf 3e dd 38 44 3e
       0.084125996 0.3433691 0.4054361 0.19162317
000090 17 1d 98 3e 65 be 85 3e 4a 8e 96 3f 10 14 6e 3e
       0.29709694 0.26121822 1.1762173 0.2324984
0000a0 09 3a 06 3f 0d a8 bc 3e 54 79 af 3d 41 22 c0 3e
       0.52432305 0.36846963 0.085680634 0.37526134
0000b0 1e ba 46 3e 9c 23 5b 3e ce e0 d5 3e 9b 31 ea 3e
       0.19406936 0.21400303 0.41773075 0.4574097
0000c0 63 21 88 3e 71 b6 55 3e e3 2c fb 3e 79 39 6a 3e
       0.26587972 0.20870377 0.49057683 0.22873487
0000d0 d9 cc 54 3e a0 df b6 3e 7c c3 5d 3e f7 45 24 3d
       0.20781268 0.35717487 0.21656603 0.040105786
0000e0 1d ef ca 3e 93 35 bc 3e 75 0e af 3e c3 e1 e3 3e
       0.39635554 0.36759624 0.34190717 0.4450818
0000f0 cd 61 bd 3d df d7 f3 3e 2e a3 af 3e fe 36 ea 3e
       0.0924717 0.47625634 0.34304184 0.4574508
000100 d0 f4 b4 3e 37 90 dd 3e 8e 9c 1a 3f 38 ae 35 3f
       0.35343027 0.4327409 0.60395133 0.7096896
000110 d7 5d 49 3e a5 68 cd 3e 55 07 89 3e 50 2e 5e 3e
       0.19664703 0.401189 0.26763406 0.21697354
000120 74 f3 80 3f 7f b1 d1 3e a7 f8 d9 3e 08 69 72 3f
       1.0074296 0.4095573 0.4257252 0.94691515
000130 03 14 89 3e e3 5f 62 3f 12 18 6f 3f 35 f8 3e 3e
       0.2677308 0.8842756 0.93396103 0.18649371
000140 8c 4e 21 3f bf 5c 0a 3f 41 38 1d 3f 03 a5 29 3f
       0.6301048 0.5404777 0.6141396 0.6626741
000150 c2 e1 01 3f a6 74 8e 3e 04 ba 82 3f 4a 56 a2 3e
       0.50735104 0.2782337 1.0213017 0.31706458
000160 0c 0b 98 3e 73 31 f5 3e 50 ff c6 3e c0 88 c8 3e
       0.29695928 0.4788929 0.38866663 0.39166832
000170 f8 75 bc 3e c1 91 61 3e d2 6d 57 3e 0f 9d 3c 3e
       0.36808753 0.22028257 0.21037987 0.18419288
000180 91 69 f7 3e e0 b0 b5 3e 0b c4 a7 3e e4 0d a0 3e
       0.48322728 0.35486507 0.32766756 0.31260598
000190 09 31 d6 3e 06 bc b3 3e 31 ad 81 3e 84 07 57 3f
       0.41834286 0.35104388 0.25327447 0.8399584
0001a0 fa 5b 40 3f 86 05 13 3e 8e 0f 8e 3e 51 27 eb 3e
       0.75140345 0.14357576 0.27746242 0.45928434
0001b0 5f a7 7f 3e 8d 96 8a 3e dd d8 d7 3e ae 92 0a 3f
       0.24966191 0.27067986 0.4215764 0.54130065
0001c0 00 4f 14 3e f4 4a b8 3e 4a 63 cc 3e 95 f4 da 3e
       0.14483261 0.35994685 0.39919502 0.42764726
0001d0 01 2b 60 be 6e be ca 3e 05 c1 88 3e d1 8c 9a 3e
       -0.21891405 0.3959841 0.26709762 0.3018556
0001e0 d6 b7 d1 3e ca 8f 16 3e 70 dc 02 3f 12 f7 1b 3e
       0.40960568 0.14703289 0.5111761 0.15230969
0001f0 85 73 ea 3e ea 81 01 3f 4a ff da 3e 44 de ab 3e
       0.4579126 0.5058886 0.42772895 0.33568013

model_input.2.bias f4 [128]
000000 4d 2d 2c 3e 7d 66 93 be 28 a3 89 bd 00 79 6c bd
       0.16814156 -0.2878913 -0.06720573 -0.057732582
000010 b6 b0 11 3c 05 38 02 be af 8a 0a be e7 ce 8e ba
       0.008892229 -0.12716682 -0.13529466 -0.0010895402
000020 b8 0b c2 3d 07 14 e0 bd e9 13 99 3d 78 16 49 3d
       0.094748914 -0.1094132 0.07474501 0.049093693
000030 21 c8 88 bd 0b f8 dd 3d 14 80 89 bc 18 6d 45 be
       -0.066787966 0.10838326 -0.016784705 -0.19279897
000040 0f ee a7 bd fe 38 af bd 0d d3 91 3d 5d d4 91 bd
       -0.08199703 -0.08555792 0.07120333 -0.07120583
000050 ea 56 fa bd 56 57 c6 bd 5e c6 98 3d 52 17 bc 3c
       -0.12223609 -0.09684627 0.074597105 0.022960339
000060 93 5a 0b be 6c 62 30 be ff 03 67 bd 2d 69 f2 3d
       -0.1360877 -0.17225045 -0.056400295 0.11836467
000070 d1 2c 3c be 54 7c e6 bd ac 59 36 bd ac ba 3b be
       -0.18376471 -0.112541825 -0.04451911 -0.18332928
000080 1e 2e 6c 3e c1 09 62 bc 22 b9 ef bc c7 0a 80 3d
       0.23064467 -0.013796271 -0.029263083 0.062520556
000090 03 e1 a4 3d 2a 64 52 be 30 fa bc 3d a1 4f 11 be
       0.0805073 -0.20546022 0.09227407 -0.14190532
0000a0 1d c8 dd bd f7 ea 92 3d fe f3 a5 3e 5e 97 05 bd
       -0.10829184 0.07173722 0.32412714 -0.032615058
0000b0 d7 fc 1f 3e 6d 7b b2 bc 3a 56 2a 3d 57 b9 ed bd
       0.15623794 -0.02178737 0.04158614 -0.116076164
0000c0 e7 99 3f be c8 f4 e4 bd cb 66 65 3c 2e 70 ff bd
       -0.18711053 -0.11179501 0.014001559 -0.124725685
0000d0 00 1f f0 bd 42 6b 80 3c 36 da 22 3b 93 e2 87 be
       -0.11724663 0.015676145 0.0024849302 -0.2654005
0000e0 2f 8c 29 be f6 b9 03 3c 54 2a 01 be 3c 8f c9 bd
       -0.16557382 0.008039942 -0.12613803 -0.09841773
0000f0 21 0c 8b be 2d 9c 58 bd 4b 10 2a bd a3 1b 0a 3d
       -0.2715769 -0.052883316 -0.041519444 0.033717763
000100 d4 1c 6c bd 46 17 e3 bd 87 cf 10 be 00 78 94 3d
       -0.05764468 -0.110884234 -0.14141665 0.07249451
000110 e3 1f 30 be 05 1b 3b 3c 93 70 0f be c0 a4 c8 3d
       -0.17199664 0.011420016 -0.14007787 0.097970486
000120 34 bf 0e bd 2c 93 e4 3d a0 27 a3 bd 3c 15 a3 bc
       -0.034850314 0.11160883 -0.07966542 -0.019907586
000130 d7 d2 18 bd 30 16 c5 3d e7 c8 91 bb d1 c1 22 bd
       -0.037310448 0.096233726 -0.0044489983 -0.03973562
000140 08 a8 e9 bd 1e 92 af bc 02 8c 44 3e 25 67 4c bd
       -0.114090025 -0.021431979 0.19194034 -0.049903054
000150 ad b3 1b 3e 3f 11 cd 3d 52 55 1b 3d f3 46 a1 3d
       0.1520526 0.10013055 0.037923165 0.078748606
000160 ad cf 88 3e 0c fc 23 bd 14 fe 07 be c4 3f a9 3c
       0.26720944 -0.040035293 -0.13280517 0.020660289
000170 7f 78 55 bc ec 97 ce 3d e3 7e 42 3d a5 e4 ba 3c
       -0.013029217 0.100875705 0.04748429 0.022814104
000180 4d 5f 3c be 31 cf e4 bd 07 61 d7 3d 7b 44 b7 3c
       -0.1839573 -0.11172331 0.10516553 0.022371521
000190 54 11 2c 3e a4 ba ab 3d 79 10 c3 bd 49 df c8 3d
       0.16803485 0.08385208 -0.09524626 0.09808213
0001a0 9a 5b 5f bd d0 d1 2b bc cb 60 a1 3d 0f b2 46 3b
       -0.054530717 -0.010487035 0.0787979 0.0030318534
0001b0 13 24 a6 bd b6 c5 a1 3c 31 e5 25 bd b3 fd 15 bd
       -0.08112349 0.019747596 -0.040501777 -0.0366189
0001c0 4a e8 17 3e d2 fa 70 bc ee b6 9c bd 4f fe 5b bd
       0.14834705 -0.014708238 -0.076520786 -0.053709324
0001d0 06 cc 8f 3d 67 75 0a be 6a 60 90 3d 20 94 ec 3c
       0.07021336 -0.13521348 0.070496395 0.028879225
0001e0 f8 bf 1a 3d 3a 0a 39 be 8e f2 f2 3c ec ed 37 3e
       0.037780732 -0.18070307 0.029656675 0.17961854
0001f0 0c e5 07 bd d4 7c 1c bd aa c9 72 bd 6d 79 10 3d
       -0.03317742 -0.038204983 -0.059274353 0.03527205

model_input.2.running_mean f4 [128]
000000 cf 7d 31 3f 5b 0c 22 3f 51 4f 17 3e 61 da 1c 3e
       0.69332594 0.633001 0.1477635 0.1531768
000010 ee d3 70 3e 06 c8 e6 3e 0c 3f 50 3e 82 20 0b 3e
       0.23518345 0.4507448 0.2033655 0.1358662
000020 fc cd 4d 3f 30 ea af 3e 3c ab 6d 3f 27 ef 6a 3e
       0.8039243 0.34358358 0.9283941 0.22942792
000030 ce a3 d3 3e 9b 5a 80 3e 03 5d ab 3e 55 9d bf 3e
       0.4133591 0.25069126 0.334694 0.37424722
000040 6d a3 49 3f 41 90 e8 3e 5c 23 58 3e a2 00 4d 3f
       0.7876499 0.45422557 0.21107239 0.8007909
000050 db 46 85 3e 89 c1 64 3f 47 d2 16 3f e6 aa 9f 3e
       0.2603062 0.8935781 0.5891461 0.31185073
000060 24 bd 00 3f be af 50 3e 17 b6 86 3e 31 2c dd 3e
       0.50288606 0.2037954 0.263108 0.43197778
000070 75 3d 8e 3f 72 84 bb 3d aa a0 34 3e ce 67 00 3f
       1.1112505 0.09156121 0.17639413 0.50158393
000080 9c 35 25 3f 3b fa e8 3e 44 10 00 3f 0f e9 35 3f
       0.64534926 0.4550341 0.5002482 0.71058744
000090 38 87 1e 3f 72 0e ab 3d e7 bd c6 3e c3 a5 88 3e
       0.6192508 0.083523646 0.3881676 0.26688966
0000a0 d0 40 c1 3e 4a 6c 95 3f 43 32 f6 3e 39 b3 bb 3e
       0.3774476 1.1673672 0.48085222 0.36660174
0000b0 ca 1b 85 3e 96 36 22 3e e6 21 b6 3e 41 a0 60 3e
       0.25997764 0.15841135 0.35572737 0.21936132
0000c0 81 c0 b6 3e 54 b6 48 3f 3a 02 42 3f d3 df 8a 3e
       0.35693744 0.7840321 0.7578465 0.2712389
0000d0 cf ea 48 3e ac 4a 22 3e 46 45 b4 3d 59 e4 ad 3e
       0.19620822 0.15848798 0.08802275 0.33963278
0000e0 51 21 91 3e 7f c2 30 3f dc 4e 8e 3f 1d 2a d9 3e
       0.2834573 0.6904678 1.1117816 0.42414942
0000f0 0d d4 00 3f c3 ff e6 3e 99 04 ce 3e 09 9c a3 3e
       0.50323564 0.45117006 0.40237883 0.31954983
000100 95 27 c4 3e ca a3 a5 3f dd 99 f4 3e 99 25 11 3f
       0.3831145 1.294061 0.47773638 0.56697994
000110 18 3c 22 3e 85 32 45 3f 5d f5 f3 3f 56 eb 9f 3e
       0.15843236 0.7703021 1.9059254 0.31234235
000120 0d d6 ea 3e 90 c3 3e 3f ac 89 8d 3e 4b b2 c6 3e
       0.45866433 0.74517155 0.27644098 0.38807902
000130 92 f2 e8 3f 65 6b 1d 3f 9f 31 50 3e 19 90 5a 3e
       1.8199027 0.61491996 0.20331429 0.21344031
000140 60 62 98 3e e9 3d 09 3f 8f 36 85 3f a5 b9 14 3e
       0.29762554 0.5361009 1.0407275 0.14523943
000150 7c 0a f1 3d 44 9b 02 3e 9a 32 a0 3e 09 91 c2 3e
       0.11769578 0.12754542 0.31288606 0.38001278
000160 d7 18 7f 3f 49 41 03 3f f7 a4 4b 3e d5 7e 12 3f
       0.9964728 0.5127149 0.19887148 0.5722478
000170 04 ec 7a 3e b1 5b 00 3f 03 bd 3c 3f 59 6e ff 3d
       0.24504095 0.5013991 0.7372591 0.12472219
000180 ec bf 67 3f 26 40 72 3e 5a 8a 3f 3e 79 0b 16 3f
       0.90527225 0.23657283 0.1870512 0.58611256
000190 02 ce 98 3f 37 de 5c 3f de 80 1e 3e ab 22 3a 3e
       1.1937869 0.8627657 0.15478846 0.18177287
0001a0 60 1e 8e 3e 82 94 71 3d 57 33 ad 3e f0 a1 14 3f
       0.2775755 0.05897952 0.33828232 0.58059597
0001b0 95 51 47 3f 24 91 1a 3f 86 1e b9 3f fd 52 fc 3e
       0.7785886 0.60377717 1.446244 0.49282065
0001c0 5d 61 3e 3f b0 f4 3b 3e 2d 70 49 3f 3d 31 2b 3f
       0.74367315 0.1835506 0.7868679 0.66872007
0001d0 c5 03 61 3e ec 6f 0c 3f 46 6f ad 3e 04 a2 d1 3e
       0.21974094 0.5485828 0.33873957 0.4094392
0001e0 3b 59 e2 3e 12 73 6e 3e b4 cc 9d 3e c0 47 79 3f
       0.44208702 0.23286083 0.3082024 0.97375107
0001f0 09 4b 3f 3f 29 86 8d 3e df 9f a2 3f 67 1e 9e 3e
       0.7472387 0.2764142 1.2705039 0.3088257

model_input.2.running_var f4 [128]
000000 29 87 b7 3e 6d 7f 19 3f a9 23 a3 3d c7 e0 9c 3d
       0.35845307 0.5996006 0.07965786 0.076600604
000010 05 b1 ef 3d 90 af 9f 3e b6 3a 5e 3e 36 47 41 3d
       0.11703686 0.3118863 0.21702084 0.047187053
000020 fa f8 fb 3e b7 ee 70 3e 52 1f 07 3f 5a b7 2c 3e
       0.49213392 0.23528562 0.52782166 0.16866818
000030 14 2c ba 3e 4c b7 42 3e e9 67 31 3e e9 2a cd 3e
       0.36361754 0.19015235 0.17324795 0.400718
000040 21 8c 4e 3f 70 47 d9 3e 62 5a 28 3e 9b 63 2a 3f
       0.8068257 0.42437315 0.16440728 0.66558236
000050 f1 fd 13 3e fb a4 4f 3f fa 24 0c 3f e2 de 4b 3e
       0.1445234 0.81111115 0.5474392 0.19909242
000060 27 7d fb 3e 83 37 9c 3d 59 44 12 3e 33 23 a2 3e
       0.4911892 0.076277755 0.14283885 0.3166748
000070 80 d5 d1 3f 02 1a 37 3d 11 9b f6 3d 17 a6 e3 3e
       1.639328 0.044702537 0.12041295 0.44462654
000080 f3 ea 1a 3f de 28 4b 3e 66 8a cd 3e 59 43 82 3f
       0.60514754 0.19839808 0.40144652 1.0176803
000090 7e 34 fd 3e 58 16 0f 3d d7 18 7f 3e fc c4 17 3e
       0.4945411 0.034933418 0.2491182 0.14821237
0000a0 19 41 de 3e 2d 7a f3 3e 6a 79 17 3f 76 c7 94 3e
       0.4340904 0.4755415 0.5916964 0.29058427
0000b0 53 e0 4a 3e 8a f9 fb 3d 67 82 73 3e 2c ee f4 3d
       0.19812135 0.12303455 0.23780213 0.1195949
0000c0 6c d4 36 3e a3 45 4d 3f b1 c5 49 3f 9b ea 7c 3e
       0.1785447 0.8018438 0.7881728 0.2469887
0000d0 3c 03 1d 3e 20 49 fd 3d 91 5f e0 3c 9a ba 7a 3e
       0.15333265 0.12367463 0.02738932 0.24485245
0000e0 7c ca 13 3e d0 3b 95 3e 98 d7 d9 3f f4 29 85 3e
       0.1443271 0.29147196 1.7018919 0.2600857
0000f0 d9 45 15 3f 7e f8 81 3e 6c 2a 52 3e 8d e4 4f 3e
       0.58309704 0.25384897 0.20523995 0.20302029
000100 d4 18 09 3f 85 a8 aa 3f e3 d1 a6 3e aa af c2 3e
       0.5355351 1.3332678 0.32582006 0.38024646
000110 70 bb fa 3d 0e b2 2f 3f f4 23 1c 40 b6 d3 2a 3e
       0.12242782 0.68631065 2.4396944 0.16682324
000120 e1 78 90 3e b9 35 f3 3e 1c 3c 6f 3e 9f ac 7b 3e
       0.28217223 0.47501925 0.23362774 0.24577568
000130 72 ca 2c 40 3e 90 b7 3e fd c1 1c 3e fe 0e 38 3e
       2.6998563 0.35852236 0.15308376 0.17974469
000140 fc 60 56 3e 2c 7d 9d 3e 46 e1 d8 3f 03 4a b0 3d
       0.20935434 0.3075956 1.6943748 0.086078666
000150 85 4a 99 3d da 4b 95 3d eb fd 6e 3e 0e 78 7b 3e
       0.074849166 0.07289858 0.2333905 0.24557516
000160 75 30 2f 3f e7 60 a6 3e 41 0e 2e 3e 60 2d 23 3f
       0.68433315 0.32495806 0.16997625 0.6374111
000170 14 df 9a 3d 02 16 c1 3e ee 92 40 3f 29 59 a9 3d
       0.0756208 0.37712103 0.75224197 0.08268959
000180 4b 07 b0 3f d6 78 ff 3d 41 13 e6 3d b6 ca f6 3e
       1.3752226 0.124742195 0.11234141 0.4820153
000190 12 99 d2 3f 81 6a 6d 3f d0 22 9a 3d d4 4c e8 3d
       1.6452963 0.9274064 0.07526171 0.11342779
0001a0 30 d3 46 3e f5 6a d9 3c 1c 07 13 3e da a1 29 3f
       0.19416499 0.026540259 0.14358181 0.6626259
0001b0 fe a0 14 3f fc 99 9b 3e e1 21 c5 3f 81 bf 17 3f
       0.58058155 0.30390918 1.5400964 0.59276587
0001c0 3d d4 48 3f 5b b7 c9 3d 5c a4 03 3f c8 dd 53 3f
       0.7844885 0.098494254 0.5142267 0.82760286
0001d0 cd a2 37 3e 4a 48 27 3f fa a9 62 3e 03 6b e4 3e
       0.17933197 0.6534468 0.22135153 0.44612893
0001e0 42 01 8f 3e 1b 5f 5f 3e f6 7c 21 3e 45 4a de 3e
       0.27930647 0.21813624 0.15770325 0.43416038
0001f0 cf 76 51 3f 41 4b 60 3e a5 2c db 3f cc bb 3b 3e
       0.8182191 0.21903707 1.7123 0.18333358

model_output.0.weight f4 [128, 132]
000000 bb 76 f2 3c c8 20 72 bd 9b 0c a0 bd f3 01 e5 3c
       0.02959763 -0.059113294 -0.07814904 0.027955031
000010 21 47 d9 bd 49 11 05 3e e6 6a 2b bc 7c e3 7c bc
       -0.1060927 0.12994875 -0.010462498 -0.015435096
000020 c0 10 b1 3c 21 15 41 bd 2c ea 8b 3c 11 c4 1d bc
       0.021614432 -0.04713929 0.017079435 -0.009629265
000030 a3 73 88 3d d4 2c b4 3d 53 8a 32 bd b2 65 39 bd
       0.06662681 0.08797613 -0.043588948 -0.045263
000040 4f 6a 84 bd 2c 98 af 3d 79 d5 37 3d f6 73 ab bc
       -0.06465589 0.08573946 0.044881318 -0.020929318
000050 21 3e 03 bd 9d c2 d1 3d cc 10 b2 3d 5a ff f1 3b
       -0.032041673 0.10242198 0.0869461 0.0073851766
000060 97 9d a9 bd 43 5f 06 3e d6 9d e8 bd 9c c5 20 3e
       -0.08282011 0.13122277 -0.1135823 0.15700382
000070 2d 58 dc 39 0d 0e 51 be 39 35 3a 3d 73 53 2d bd
       0.00042027366 -0.20415516 0.045460913 -0.04231591
000080 f0 b0 33 3e bb d0 f7 ba 11 12 ec bd 80 aa 60 bd
       0.17547965 -0.0018906811 -0.115268834 -0.0548501
000090 79 67 d8 bd 8d c7 a7 3d 67 d8 f5 bd 2c 0b 25 3b
       -0.10566611 0.08192358 -0.12004166 0.002518366
0000a0 75 9b f3 3a a3 45 a3 3c 0a b3 25 bc 9d 86 89 bc
       0.0018585759 0.019930666 -0.010113487 -0.016787821
0000b0 d8 8c 52 3d 4d 05 38 be 8b 6c c4 3c 08 c6 9a bd
       0.05140385 -0.17970772 0.023977539 -0.07557303
0000c0 06 f7 17 bd f8 5f 09 bd 77 59 e3 bd 7a 15 9a bd
       -0.037100814 -0.03353879 -0.111010484 -0.075236276
0000d0 2c 91 dd bd 8a 71 dd bd 3b 02 a6 3a 3b 99 90 be
       -0.10818705 -0.108126715 0.001266546 -0.28241906
0000e0 eb f1 80 3d 36 02 3a be 2c ab 99 bc 02 93 c6 bc
       0.06296142 -0.18164906 -0.018758379 -0.02424002
0000f0 5b 85 06 bc 0d 06 60 3e b7 ce 33 3c 7e 8c 9e 3d
       -0.008210505 0.21877308 0.010974578 0.077416405
000100 26 97 6a bd ce fe d6 3d 5c 01 30 bd 8a 93 9f bd
       -0.057273053 0.10497819 -0.042970046 -0.07791813
000110 5f fe e1 3d 51 e3 85 bd c4 d8 84 bd eb 63 20 3c
       0.110348456 -0.06537498 -0.06486657 0.009789447
000120 9e fc 86 bc 07 7f cc 3d ac e3 69 bd f6 e4 e9 bd
       -0.01647788 0.09985166 -0.05710189 -0.11420624
000130 6c d3 29 bd cb eb 41 3d 39 7d c2 3d ff 1e 8a bc
       -0.041461393 0.04734401 0.094965406 -0.016860483
000140 c6 b2 d6 3c b0 7a 80 3d 9e 5b ce 3d e9 51 c0 3d
       0.026208293 0.06273401 0.10076068 0.09390623
000150 9f 94 3c bc f4 cf bd 3d b9 87 0c 3e 7f a1 74 3e
       -0.011510043 0.092681795 0.13723649 0.23889731
000160 d6 d6 b3 3d a8 67 9e 3d 7b 82 78 be 68 d7 2c be
       0.08781211 0.077346146 -0.24268524 -0.16879046
000170 b9 72 ad bd 97 7e c7 3d e2 6e 2b be 6b 5a 8d 3d
       -0.08469147 0.09740942 -0.16741517 0.069020115
000180 50 6e f0 bd e1 4b 16 3d b6 35 3d bd 78 f6 0e 3e
       -0.117397904 0.036693458 -0.0461938 0.13961208
000190 14 03 d8 bd 7a ee a6 3d 64 44 89 bb 29 82 b6 bd
       -0.10547462 0.081509545 -0.004189061 -0.08911545
0001a0 0b 55 a5 bd 27 00 97 3d cf 6c 79 3d 81 6d 0b bd
       -0.08072861 0.07373076 0.060894784 -0.034039978
0001b0 cb ff 10 bd 40 29 21 3e 08 3a 86 bd 24 b3 06 38
       -0.035400193 0.15738392 -0.06554037 3.2114927e-05
0001c0 77 33 a1 3d 92 f7 bf 3b 4b 5c d5 bd 6d e5 8a 3d
       0.07871144 0.00585837 -0.10417994 0.06782041
0001d0 0e 0f 44 bd 0f 29 dd 3d 87 91 17 be 23 70 8e 3c
       -0.04786592 0.10798847 -0.14801608 0.017387455
0001e0 47 45 95 bd 37 0f 06 be 83 4a 75 3d bd 6f 95 3d
       -0.07288604 -0.13091742 0.059885513 0.07296703
0001f0 1e 38 59 3d da a3 69 be 52 3b 24 3b d9 a6 77 bc
       0.053032033 -0.2281641 0.0025059772 -0.015115463
000200 2c 84 01 bc fe bd 79 3c 28 4c 9c 3c 38 4e 45 bd
       -0.007905047 0.015243052 0.019079283 -0.0481703
000210 63 75 ce bc 14 1f 99 3c de f8 07 3e e6 63 b3 bd
       -0.025202459 0.018691577 0.13278529 -0.087592885
000220 fe bd f9 3c f0 ac 03 3e a6 00 93 3c b5 ed ec bc
       0.030486103 0.12858939 0.017944645 -0.028921941
000230 d3 13 97 3b ef 41 c7 3d 8c bd 00 be b1 4f cf 3d
       0.0046105175 0.09729373 -0.12572306 0.10122622
000240 7e 71 23 3e 1a 16 ee bd 4d 16 e8 bd 9e 29 ae bd
       0.15961263 -0.11625309 -0.113323785 -0.085040316
000250 14 a7 d2 3d af 45 97 bd 8e 7b 93 3c 20 14 b3 3d
       0.10285774 -0.07386338 0.018003251 0.08744073
000260 3b 5a 23 3d 08 82 1e 3e 69 3a 85 3c d8 68 97 3c
       0.039880972 0.1547929 0.016263204 0.01848261
000270 c1 e8 30 3d d6 f4 a6 bc 57 e2 0c bc fb 34 25 be
       0.04319072 -0.020380419 -0.0085988855 -0.16133492
000280 bd c6 bd 3d f6 b4 ff bd 07 fe 46 3d e5 00 a2 3c
       0.09266422 -0.124856874 0.048582103 0.019775817
000290 39 53 a8 bb 75 85 14 3e be 15 55 bd e9 0c b7 3c
       -0.005136874 0.14504035 -0.052022688 0.022345023
0002a0 f9 b9 12 bd 79 a1 e9 bd df 7a 11 3e 3e 2f 41 3e
       -0.03582189 -0.114077516 0.14207028 0.18865678
0002b0 0d 36 64 3d eb 6f 2f 3d ed 10 cf 3d 5a 0c 04 3e
       0.05571561 0.042831343 0.1011065 0.12895337
0002c0 3c eb 6f bd 67 98 8b bd d3 91 0c 3d c9 64 bf 3d
       -0.058573946 -0.06816178 0.034318756 0.09345395
0002d0 90 80 c7 3c 40 3a 20 3e 3f fa 24 be 10 13 1f be
       0.024353296 0.1564722 -0.16111086 -0.15534616
0002e0 4f fb 46 3a 89 6b ee 3c b9 51 f6 bd fd a2 24 be
       0.00075905485 0.029104011 -0.12027306 -0.160778
0002f0 ab 20 05 3e 8a 88 c2 bc 19 a4 32 bc f7 b9 6d 3d
       0.13000743 -0.023746748 -0.010903382 0.058038678
000300 1e fe a0 3c ac 76 c9 3b 45 d7 b8 3d 6a b3 c6 bc
       0.019652423 0.00614818 0.090254344 -0.024255473
000310 3e 44 ad 3d 51 b0 2d bc 16 e7 6d bd fa fc 92 bd
       0.08460282 -0.010601119 -0.05808171 -0.07177158
000320 10 78 cf 3d 55 13 48 bd 2c 89 f9 bd 8c 4d 11 bd
       0.10130322 -0.04884656 -0.121843666 -0.035474345
000330 0a 96 ff bc 02 df 9c 3d aa ea 32 bd 47 25 e5 bd
       -0.031199474 0.07659723 -0.043680824 -0.11188751
000340 ca d5 34 3e e4 d5 13 bc 34 3b bb bd 33 56 f1 bb
       0.17659679 -0.0090231635 -0.091421515 -0.007365012
000350 fe 2a 11 3e 85 df 13 3d ad 1c 41 3e ab 06 04 be
       0.14176556 0.036101837 0.18858595 -0.12893169
000360 16 0c 0d 3e f9 59 13 be 35 f0 60 3d 0a 1a 88 be
       0.13774142 -0.1438979 0.05491658 -0.26582366
000370 b2 a5 ea bd b7 0b c9 bd 87 0b 67 bd 25 ad 8a bc
       -0.11457385 -0.098166876 -0.056407478 -0.016928265
000380 ed 9f 81 3e 8e 05 89 bd e3 71 6e 3c 11 cb 9f 3d
       0.25317326 -0.066905126 0.01455352 0.07802404
000390 d2 76 f9 bd 3d 3b 24 3e 04 19 22 bd f8 ab 7b 3d
       -0.12180866 0.16038223 -0.039574638 0.0614433
0003a0 99 56 cf 3d 66 a5 23 3e 5e 6d 8a 3d 7b 24 a0 3b
       0.10123939 0.15981063 0.067591414 0.0048871613
0003b0 5d 7e 01 3e 77 d2 fb 3d 24 48 6e 3d 20 eb bb 3d
       0.1264586 0.12296002 0.058174267 0.09175706
0003c0 d9 87 ea 3d f2 fc 07 3c 46 3e 0d 3e 08 26 14 bc
       0.11451692 0.008300053 0.13793287 -0.0090422705
0003d0 41 b3 22 3d 77 83 98 bc 47 1c c3 3d 65 64 9b bd
       0.03972173 -0.018617375 0.09526878 -0.07587508
0003e0 34 b0 a0 3d 68 31 c7 bd 67 a0 d7 3d 02 b5 6c 3d
       0.07846108 -0.0972622 0.10528641 0.05778981
0003f0 23 52 8c bc 1a 5c 6b be 79 e8 0f bd f2 9f 04 be
       -0.01712901 -0.22984353 -0.035133813 -0.1295164

model_output.0.bias f4 [128]
000000 6f 36 96 3e d0 4c 8f 3e 97 fc 2a be c4 9e 84 bc
       0.29338405 0.2798829 -0.16697918 -0.016188987
000010 c2 99 ee bd 56 18 03 3e 53 fc a9 bd a3 71 46 3e
       -0.11650421 0.12802252 -0.0830008 0.19379286
000020 d3 81 50 bd 68 19 d2 bd b9 95 67 bd 03 84 43 3e
       -0.05090506 -0.10258752 -0.05653927 0.19093327
000030 02 19 ef bd 19 e7 63 3e 87 7a 20 be f1 b2 2f be
       -0.11674692 0.22256126 -0.1567174 -0.17158104
000040 19 4e 92 3d b5 11 6a bd b0 30 ba 3e 9a 08 15 3e
       0.07143802 -0.057145793 0.3636527 0.14554062
000050 6d fb a4 bd 98 9f 79 3e ab 75 ff bc ce 2f 39 3e
       -0.08055768 0.24377286 -0.031184038 0.18084642
000060 98 0a 96 3e bc 95 3f 3e e2 33 00 be a7 2c bc bd
       0.29304957 0.18709463 -0.12519792 -0.09188204
000070 27 88 01 bd 2a e9 d2 bd a3 65 83 bc ee 71 36 bd
       -0.031623986 -0.10298379 -0.016039675 -0.044542246
000080 2b 54 80 3e 1e b3 96 3e 46 0a bd 3e d3 64 ec 3e
       0.25064215 0.2943353 0.369219 0.46170673
000090 34 7b 5f 3e d9 ec 4f 3e 58 af 5c 3e 8b 25 cd bd
       0.21824342 0.20305194 0.21551263 -0.100169264
0000a0 cf 33 e7 bd 99 6f c7 bd d4 c9 fd bd 69 43 59 3d
       -0.112891786 -0.097380824 -0.12392011 0.053042803
0000b0 5c 21 27 3e 6a 93 92 3e 8a 2c a3 3e 9b 8e c0 3e
       0.1632132 0.28628093 0.31869918 0.376088
0000c0 4f 6a 92 3e 13 08 c0 3e 47 b2 4e bd 2e 7b 29 bc
       0.28596732 0.3750616 -0.050462987 -0.01034431
0000d0 16 63 9d bd 5b 30 52 be 5f 18 92 3e f1 a0 86 bd
       -0.07684915 -0.20526259 0.2853422 -0.06573666
0000e0 e0 13 75 3e b8 b5 27 3d 88 33 ec bd 8a 0d 3e 3e
       0.23933363 0.040944785 -0.11533266 0.18559852
0000f0 77 b2 9a 3e b5 a6 63 3e 46 b8 87 3b cd 09 0e bd
       0.30214283 0.22231562 0.00414184 -0.034677316
000100 41 ba 54 3e 31 63 bd 3e 71 89 14 3e 46 80 a3 bd
       0.20774175 0.3698974 0.14505555 -0.079834506
000110 02 55 26 3e 22 73 01 3e 4e 92 f5 ba d4 4e c3 3e
       0.16243365 0.12641576 -0.0018735619 0.3814608
000120 67 59 9c 3e e7 59 8d 3c d9 24 4d bd b0 7c 12 bd
       0.3053696 0.017254783 -0.05008397 -0.035763443
000130 1f 29 ae 3e 62 23 b0 bd c7 fa 70 3e 68 4f ca 3e
       0.34015748 -0.08600499 0.23533164 0.39513707
000140 d3 85 6a 3e 79 e4 d3 bd 78 88 09 be fa bf 66 3e
       0.22902612 -0.10346312 -0.13430965 0.22534171
000150 7a 4d 2a be d8 0d 16 be 00 49 40 be 9c 46 f5 3d
       -0.16631117 -0.14653718 -0.18777847 0.11976358
000160 ec f4 35 3e fd 00 64 be c4 d4 50 3e ad c2 5a 3e
       0.17769212 -0.22266002 0.20393664 0.21363325
000170 d3 ba 33 bd 1b 83 d2 bd c4 0f 44 3c bd 30 51 bd
       -0.04387934 -0.10278913 0.011966649 -0.05107187
000180 be 9f a2 3e 66 ff 9c 3e 2f d5 88 3e 5a 31 d5 bd
       0.317625 0.30663604 0.26725146 -0.10409804
000190 3e 07 f8 bd 89 ad 05 be 22 d2 57 bc 38 c4 82 bc
       -0.12110756 -0.1305448 -0.013172658 -0.015962705
0001a0 12 a8 a2 3e fc 13 9b 3e db 9c fd 3d 9f c5 66 bd
       0.31768852 0.30288684 0.123834334 -0.05634081
0001b0 78 18 76 3c 9a 31 cd bd 5e 38 4a be 7f be e2 bd
       0.015020482 -0.10019226 -0.19748065 -0.110714905
0001c0 16 6a 1d be b4 cd 93 bc ec 5e 35 3e 6f 65 11 be
       -0.153725 -0.018042423 0.17711991 -0.1419885
0001d0 bf 9e ee 3d 73 33 8a bd 11 59 cb bd b9 82 ab 3e
       0.11651372 -0.067480944 -0.099290974 0.3349817
0001e0 45 a5 ba bd 10 5b 41 bc 0d 72 49 3e 8b d5 1a 3e
       -0.09113554 -0.011801496 0.19672413 0.15120523
0001f0 51 83 b5 3e fb d9 a4 3e 6f 6f 0b be 0c 7d 6d 3e
       0.3545175 0.32197556 -0.13616727 0.23192233

model_output.2.weight f4 [1, 128]
000000 a2 be ce 3d 07 c0 b8 3d 20 8f 1e be 00 40 9b bd
       0.10094954 0.09021001 -0.15484285 -0.075805664
000010 5b 35 4c be 32 a6 12 3e 02 e6 0a be 1b 6b 12 3e
       -0.19942228 0.14321211 -0.13564304 0.1429867
000020 ea e9 a5 bd 57 d9 ac bd 3a cc 77 bd f2 99 b9 3d
       -0.08101256 -0.08439892 -0.0604975 0.09062566
000030 e0 93 c7 bd 74 70 9d 3d ef 36 b8 bd 80 25 0d be
       -0.09745002 0.07687464 -0.08994853 -0.13783836
000040 39 3e 7f 3d 02 fe d0 bd 88 2c b1 3d 27 ee a9 3d
       0.0623152 -0.10204698 0.08651072 0.08297377
000050 51 8b ec bd 39 95 bb 3d 90 e9 cd bd 50 c1 db 3d
       -0.1155001 0.09159321 -0.10054314 0.10730231
000060 b6 00 d4 3d ad 07 73 3d cc 20 01 be 76 df cd bd
       0.10351698 0.059333492 -0.12610167 -0.100523874
000070 71 21 99 bd 21 66 86 be 5c 80 9a bd 8a 72 c0 bd
       -0.074770816 -0.26249793 -0.07544014 -0.093968466
000080 4e 10 0d 3e cd 2f d8 3d ac 75 09 3e b1 13 ec 3d
       0.13775751 0.10555992 0.13423795 0.11527193
000090 a1 ec cd 3d 99 fb f2 3d c2 92 e8 3d df a3 b8 bd
       0.10054899 0.11864395 0.11356117 -0.09015631
0000a0 1d 93 78 be c7 38 8b be 83 67 bc bd 10 2e 1c 3e
       -0.2427487 -0.27191755 -0.09199431 0.15251946
0000b0 7a 47 d7 3d be a8 d9 3d d6 ca 3b 3e b1 ab 08 3e
       0.1051168 0.10627888 0.18339095 0.13346745
0000c0 23 8a c7 3d cf 7b 06 3e 51 0f a6 bd 3f 51 9a bd
       0.09743144 0.13133167 -0.0810839 -0.07535028
0000d0 4f 5f 84 bd 80 2d 4a be e4 80 1d 3e 34 5e 12 be
       -0.06463491 -0.1974392 0.15381199 -0.14293748
0000e0 d2 4a c4 3d 9c 22 d2 3d 92 4a 4b be 59 07 0e 3e
       0.09584583 0.102605075 -0.19852665 0.1386999
0000f0 bf 68 03 3e c3 b0 e3 3d 73 aa e1 bd ed 8b 80 bd
       0.12832926 0.11117699 -0.11018839 -0.06276689
000100 e0 1b 9c 3d 3d 68 21 3e 08 f6 3e 3e ae 8a 00 be
       0.07622504 0.1576242 0.18648541 -0.12552902
000110 4e 15 e1 3d c0 73 aa 3d 0d 24 97 bc ed df 0b 3e
       0.10990392 0.08322859 -0.018449808 0.1365964
000120 48 32 33 3e f2 89 e3 3d 89 3e 46 3e ad fe 04 be
       0.1749965 0.11110295 0.19359793 -0.12987776
000130 80 48 08 3e de 15 3e be 67 e1 ec 3d 3a c7 09 3e
       0.13308907 -0.18563029 0.115664296 0.13454905
000140 be e7 a8 3d d5 f9 8c bd 04 9f 24 be 31 af fc 3d
       0.08247326 -0.06883589 -0.16076285 0.123381026
000150 32 5b 0f be 9f 44 2e be af 32 94 bd 01 ff cb 3d
       -0.13999632 -0.17018364 -0.0723623 0.099607475
000160 7a d8 ae 3d 43 0f fd bd 95 f3 1f 3e 65 71 f4 3d
       0.085373834 -0.123564266 0.15620263 0.11935691
000170 b3 4c 87 bd 89 1a 0e be 34 52 10 bd b3 e8 92 bd
       -0.06606426 -0.1387731 -0.035234645 -0.0717329
000180 ed 9d d8 3d 82 31 ed 3d c7 6d 10 3e 38 8e 9c bd
       0.10576997 0.115817085 0.14104377 -0.076443136
000190 3e c4 32 bd 8c a5 42 bd 2d 7c 32 bd c8 9c e8 bd
       -0.043644182 -0.04752116 -0.043575455 -0.11358029
0001a0 ea 98 04 3e f0 9a fc 3d fb c9 bc 3d 5b a8 92 bd
       0.12948957 0.123342395 0.09218212 -0.071610175
0001b0 f8 f9 1f bd 1f 7c 1c be 29 dd 18 be f7 2b 0a bd
       -0.03905675 -0.15281723 -0.14928116 -0.033733334
0001c0 7f db 0b be cf 66 90 bd 3d 98 d7 3d 71 15 d8 bd
       -0.1365795 -0.07050859 0.10527084 -0.105509646
0001d0 f5 2c 10 3e fa b1 6e bd 39 5a f4 bd 72 f0 e0 3d
       0.1407965 -0.0582752 -0.11931271 0.10983361
0001e0 f5 bc 18 be 47 b0 0c bd 3e 81 57 3e 6e 62 71 3d
       -0.14915831 -0.0343478 0.21045396 0.05893176
0001f0 cd 7d e8 3d 4e f0 f8 3d 3f 58 00 be ec 07 98 3d
       0.113521196 0.121552095 -0.12533663 0.07423386
